7767517
484 536
Input            data                     0 1 data -23330=4,3,320,320,3 0=320 1=320 2=3
Convolution      Conv_0                   1 1 data conv2d_187.tmp_0 0=24 1=3 11=3 2=1 12=1 3=2 13=2 4=1 14=1 15=1 16=1 5=1 6=648
HardSwish        Div_0                    1 1 conv2d_187.tmp_0 batch_norm_0.tmp_4 0=1.666667e-01 1=5.000000e-01
Pooling          MaxPool_0                1 1 batch_norm_0.tmp_4 pool2d_0.tmp_0 0=0 1=3 11=3 2=2 12=2 3=1 13=1 14=1 15=1 5=1
Split            splitncnn_0              1 2 pool2d_0.tmp_0 pool2d_0.tmp_0_splitncnn_0 pool2d_0.tmp_0_splitncnn_1
ConvolutionDepthWise Conv_1                   1 1 pool2d_0.tmp_0_splitncnn_1 depthwise_conv2d_0.tmp_0 0=24 1=3 11=3 2=1 12=1 3=2 13=2 4=1 14=1 15=1 16=1 5=1 6=216 7=24
Convolution      Conv_2                   1 1 depthwise_conv2d_0.tmp_0 conv2d_188.tmp_0 0=80 1=1 11=1 2=1 12=1 3=1 13=1 4=0 14=0 15=0 16=0 5=1 6=1920
HardSwish        Div_1                    1 1 conv2d_188.tmp_0 batch_norm_2.tmp_4 0=1.666667e-01 1=5.000000e-01
Convolution      Conv_3                   1 1 pool2d_0.tmp_0_splitncnn_0 conv2d_189.tmp_0 0=72 1=1 11=1 2=1 12=1 3=1 13=1 4=0 14=0 15=0 16=0 5=1 6=1728
HardSwish        Div_2                    1 1 conv2d_189.tmp_0 batch_norm_3.tmp_4 0=1.666667e-01 1=5.000000e-01
ConvolutionDepthWise Conv_4                   1 1 batch_norm_3.tmp_4 depthwise_conv2d_1.tmp_0 0=72 1=3 11=3 2=1 12=1 3=2 13=2 4=1 14=1 15=1 16=1 5=1 6=648 7=72
Split            splitncnn_1              1 2 depthwise_conv2d_1.tmp_0 depthwise_conv2d_1.tmp_0_splitncnn_0 depthwise_conv2d_1.tmp_0_splitncnn_1
Pooling          GlobalAveragePool_0      1 1 depthwise_conv2d_1.tmp_0_splitncnn_1 pool2d_1.tmp_0 0=1 4=1
Convolution      Conv_5                   1 1 pool2d_1.tmp_0 conv2d_190.tmp_0 0=18 1=1 11=1 2=1 12=1 3=1 13=1 4=0 14=0 15=0 16=0 5=1 6=1296
ReLU             Relu_0                   1 1 conv2d_190.tmp_0 relu_0.tmp_0
Convolution      Conv_6                   1 1 relu_0.tmp_0 conv2d_191.tmp_0 0=72 1=1 11=1 2=1 12=1 3=1 13=1 4=0 14=0 15=0 16=0 5=1 6=1296
HardSigmoid      HardSigmoid_0            1 1 conv2d_191.tmp_0 hardsigmoid_0.tmp_0 0=1.666667e-01 1=5.000000e-01
BinaryOp         Mul_3                    2 1 depthwise_conv2d_1.tmp_0_splitncnn_0 hardsigmoid_0.tmp_0 elementwise_mul_0 0=2
Convolution      Conv_7                   1 1 elementwise_mul_0 conv2d_192.tmp_0 0=80 1=1 11=1 2=1 12=1 3=1 13=1 4=0 14=0 15=0 16=0 5=1 6=5760
HardSwish        Div_3                    1 1 conv2d_192.tmp_0 batch_norm_5.tmp_4 0=1.666667e-01 1=5.000000e-01
Concat           Concat_0                 2 1 batch_norm_2.tmp_4 batch_norm_5.tmp_4 concat_0.tmp_0 0=0
ConvolutionDepthWise Conv_8                   1 1 concat_0.tmp_0 depthwise_conv2d_2.tmp_0 0=160 1=3 11=3 2=1 12=1 3=1 13=1 4=1 14=1 15=1 16=1 5=1 6=1440 7=160
HardSwish        Div_4                    1 1 depthwise_conv2d_2.tmp_0 batch_norm_6.tmp_4 0=1.666667e-01 1=5.000000e-01
Convolution      Conv_9                   1 1 batch_norm_6.tmp_4 conv2d_193.tmp_0 0=160 1=1 11=1 2=1 12=1 3=1 13=1 4=0 14=0 15=0 16=0 5=1 6=25600
HardSwish        Div_5                    1 1 conv2d_193.tmp_0 batch_norm_7.tmp_4 0=1.666667e-01 1=5.000000e-01
Slice            Split_0                  1 2 batch_norm_7.tmp_4 split_0.tmp_0 split_0.tmp_1 -23300=2,80,-233 1=0
Convolution      Conv_10                  1 1 split_0.tmp_1 conv2d_194.tmp_0 0=40 1=1 11=1 2=1 12=1 3=1 13=1 4=0 14=0 15=0 16=0 5=1 6=3200
HardSwish        Div_6                    1 1 conv2d_194.tmp_0 batch_norm_8.tmp_4 0=1.666667e-01 1=5.000000e-01
Split            splitncnn_2              1 2 batch_norm_8.tmp_4 batch_norm_8.tmp_4_splitncnn_0 batch_norm_8.tmp_4_splitncnn_1
ConvolutionDepthWise Conv_11                  1 1 batch_norm_8.tmp_4_splitncnn_1 depthwise_conv2d_3.tmp_0 0=40 1=3 11=3 2=1 12=1 3=1 13=1 4=1 14=1 15=1 16=1 5=1 6=360 7=40
Concat           Concat_1                 2 1 batch_norm_8.tmp_4_splitncnn_0 depthwise_conv2d_3.tmp_0 concat_1.tmp_0 0=0
Split            splitncnn_3              1 2 concat_1.tmp_0 concat_1.tmp_0_splitncnn_0 concat_1.tmp_0_splitncnn_1
Pooling          GlobalAveragePool_1      1 1 concat_1.tmp_0_splitncnn_1 pool2d_2.tmp_0 0=1 4=1
Convolution      Conv_12                  1 1 pool2d_2.tmp_0 conv2d_195.tmp_0 0=20 1=1 11=1 2=1 12=1 3=1 13=1 4=0 14=0 15=0 16=0 5=1 6=1600
ReLU             Relu_1                   1 1 conv2d_195.tmp_0 relu_1.tmp_0
Convolution      Conv_13                  1 1 relu_1.tmp_0 conv2d_196.tmp_0 0=80 1=1 11=1 2=1 12=1 3=1 13=1 4=0 14=0 15=0 16=0 5=1 6=1600
HardSigmoid      HardSigmoid_1            1 1 conv2d_196.tmp_0 hardsigmoid_1.tmp_0 0=1.666667e-01 1=5.000000e-01
BinaryOp         Mul_8                    2 1 concat_1.tmp_0_splitncnn_0 hardsigmoid_1.tmp_0 elementwise_mul_1 0=2
Convolution      Conv_14                  1 1 elementwise_mul_1 conv2d_197.tmp_0 0=80 1=1 11=1 2=1 12=1 3=1 13=1 4=0 14=0 15=0 16=0 5=1 6=6400
HardSwish        Div_7                    1 1 conv2d_197.tmp_0 batch_norm_10.tmp_4 0=1.666667e-01 1=5.000000e-01
Concat           Concat_2                 2 1 split_0.tmp_0 batch_norm_10.tmp_4 concat_2.tmp_0 0=0
ShuffleChannel   Reshape_5                1 1 concat_2.tmp_0 reshape2_1.tmp_0 0=2 1=0
Slice            Split_1                  1 2 reshape2_1.tmp_0 split_1.tmp_0 split_1.tmp_1 -23300=2,80,-233 1=0
Convolution      Conv_15                  1 1 split_1.tmp_1 conv2d_198.tmp_0 0=80 1=1 11=1 2=1 12=1 3=1 13=1 4=0 14=0 15=0 16=0 5=1 6=6400
HardSwish        Div_8                    1 1 conv2d_198.tmp_0 batch_norm_11.tmp_4 0=1.666667e-01 1=5.000000e-01
Split            splitncnn_4              1 2 batch_norm_11.tmp_4 batch_norm_11.tmp_4_splitncnn_0 batch_norm_11.tmp_4_splitncnn_1
ConvolutionDepthWise Conv_16                  1 1 batch_norm_11.tmp_4_splitncnn_1 depthwise_conv2d_4.tmp_0 0=80 1=3 11=3 2=1 12=1 3=1 13=1 4=1 14=1 15=1 16=1 5=1 6=720 7=80
Concat           Concat_3                 2 1 batch_norm_11.tmp_4_splitncnn_0 depthwise_conv2d_4.tmp_0 concat_3.tmp_0 0=0
Split            splitncnn_5              1 2 concat_3.tmp_0 concat_3.tmp_0_splitncnn_0 concat_3.tmp_0_splitncnn_1
Pooling          GlobalAveragePool_2      1 1 concat_3.tmp_0_splitncnn_1 pool2d_3.tmp_0 0=1 4=1
Convolution      Conv_17                  1 1 pool2d_3.tmp_0 conv2d_199.tmp_0 0=40 1=1 11=1 2=1 12=1 3=1 13=1 4=0 14=0 15=0 16=0 5=1 6=6400
ReLU             Relu_2                   1 1 conv2d_199.tmp_0 relu_2.tmp_0
Convolution      Conv_18                  1 1 relu_2.tmp_0 conv2d_200.tmp_0 0=160 1=1 11=1 2=1 12=1 3=1 13=1 4=0 14=0 15=0 16=0 5=1 6=6400
HardSigmoid      HardSigmoid_2            1 1 conv2d_200.tmp_0 hardsigmoid_2.tmp_0 0=1.666667e-01 1=5.000000e-01
BinaryOp         Mul_11                   2 1 concat_3.tmp_0_splitncnn_0 hardsigmoid_2.tmp_0 elementwise_mul_2 0=2
Convolution      Conv_19                  1 1 elementwise_mul_2 conv2d_201.tmp_0 0=80 1=1 11=1 2=1 12=1 3=1 13=1 4=0 14=0 15=0 16=0 5=1 6=12800
HardSwish        Div_9                    1 1 conv2d_201.tmp_0 batch_norm_13.tmp_4 0=1.666667e-01 1=5.000000e-01
Concat           Concat_4                 2 1 split_1.tmp_0 batch_norm_13.tmp_4 concat_4.tmp_0 0=0
ShuffleChannel   Reshape_9                1 1 concat_4.tmp_0 reshape2_3.tmp_0 0=2 1=0
Split            splitncnn_6              1 3 reshape2_3.tmp_0 reshape2_3.tmp_0_splitncnn_0 reshape2_3.tmp_0_splitncnn_1 reshape2_3.tmp_0_splitncnn_2
ConvolutionDepthWise Conv_20                  1 1 reshape2_3.tmp_0_splitncnn_2 depthwise_conv2d_5.tmp_0 0=160 1=3 11=3 2=1 12=1 3=2 13=2 4=1 14=1 15=1 16=1 5=1 6=1440 7=160
Convolution      Conv_21                  1 1 depthwise_conv2d_5.tmp_0 conv2d_202.tmp_0 0=160 1=1 11=1 2=1 12=1 3=1 13=1 4=0 14=0 15=0 16=0 5=1 6=25600
HardSwish        Div_10                   1 1 conv2d_202.tmp_0 batch_norm_15.tmp_4 0=1.666667e-01 1=5.000000e-01
Convolution      Conv_22                  1 1 reshape2_3.tmp_0_splitncnn_1 conv2d_203.tmp_0 0=100 1=1 11=1 2=1 12=1 3=1 13=1 4=0 14=0 15=0 16=0 5=1 6=16000
HardSwish        Div_11                   1 1 conv2d_203.tmp_0 batch_norm_16.tmp_4 0=1.666667e-01 1=5.000000e-01
ConvolutionDepthWise Conv_23                  1 1 batch_norm_16.tmp_4 depthwise_conv2d_6.tmp_0 0=100 1=3 11=3 2=1 12=1 3=2 13=2 4=1 14=1 15=1 16=1 5=1 6=900 7=100
Split            splitncnn_7              1 2 depthwise_conv2d_6.tmp_0 depthwise_conv2d_6.tmp_0_splitncnn_0 depthwise_conv2d_6.tmp_0_splitncnn_1
Pooling          GlobalAveragePool_3      1 1 depthwise_conv2d_6.tmp_0_splitncnn_1 pool2d_4.tmp_0 0=1 4=1
Convolution      Conv_24                  1 1 pool2d_4.tmp_0 conv2d_204.tmp_0 0=25 1=1 11=1 2=1 12=1 3=1 13=1 4=0 14=0 15=0 16=0 5=1 6=2500
ReLU             Relu_3                   1 1 conv2d_204.tmp_0 relu_3.tmp_0
Convolution      Conv_25                  1 1 relu_3.tmp_0 conv2d_205.tmp_0 0=100 1=1 11=1 2=1 12=1 3=1 13=1 4=0 14=0 15=0 16=0 5=1 6=2500
HardSigmoid      HardSigmoid_3            1 1 conv2d_205.tmp_0 hardsigmoid_3.tmp_0 0=1.666667e-01 1=5.000000e-01
BinaryOp         Mul_15                   2 1 depthwise_conv2d_6.tmp_0_splitncnn_0 hardsigmoid_3.tmp_0 elementwise_mul_3 0=2
Convolution      Conv_26                  1 1 elementwise_mul_3 conv2d_206.tmp_0 0=160 1=1 11=1 2=1 12=1 3=1 13=1 4=0 14=0 15=0 16=0 5=1 6=16000
HardSwish        Div_12                   1 1 conv2d_206.tmp_0 batch_norm_18.tmp_4 0=1.666667e-01 1=5.000000e-01
Concat           Concat_5                 2 1 batch_norm_15.tmp_4 batch_norm_18.tmp_4 concat_5.tmp_0 0=0
ConvolutionDepthWise Conv_27                  1 1 concat_5.tmp_0 depthwise_conv2d_7.tmp_0 0=320 1=3 11=3 2=1 12=1 3=1 13=1 4=1 14=1 15=1 16=1 5=1 6=2880 7=320
HardSwish        Div_13                   1 1 depthwise_conv2d_7.tmp_0 batch_norm_19.tmp_4 0=1.666667e-01 1=5.000000e-01
Convolution      Conv_28                  1 1 batch_norm_19.tmp_4 conv2d_207.tmp_0 0=320 1=1 11=1 2=1 12=1 3=1 13=1 4=0 14=0 15=0 16=0 5=1 6=102400
HardSwish        Div_14                   1 1 conv2d_207.tmp_0 batch_norm_20.tmp_4 0=1.666667e-01 1=5.000000e-01
Slice            Split_2                  1 2 batch_norm_20.tmp_4 split_2.tmp_0 split_2.tmp_1 -23300=2,160,-233 1=0
Convolution      Conv_29                  1 1 split_2.tmp_1 conv2d_208.tmp_0 0=80 1=1 11=1 2=1 12=1 3=1 13=1 4=0 14=0 15=0 16=0 5=1 6=12800
HardSwish        Div_15                   1 1 conv2d_208.tmp_0 batch_norm_21.tmp_4 0=1.666667e-01 1=5.000000e-01
Split            splitncnn_8              1 2 batch_norm_21.tmp_4 batch_norm_21.tmp_4_splitncnn_0 batch_norm_21.tmp_4_splitncnn_1
ConvolutionDepthWise Conv_30                  1 1 batch_norm_21.tmp_4_splitncnn_1 depthwise_conv2d_8.tmp_0 0=80 1=3 11=3 2=1 12=1 3=1 13=1 4=1 14=1 15=1 16=1 5=1 6=720 7=80
Concat           Concat_6                 2 1 batch_norm_21.tmp_4_splitncnn_0 depthwise_conv2d_8.tmp_0 concat_6.tmp_0 0=0
Split            splitncnn_9              1 2 concat_6.tmp_0 concat_6.tmp_0_splitncnn_0 concat_6.tmp_0_splitncnn_1
Pooling          GlobalAveragePool_4      1 1 concat_6.tmp_0_splitncnn_1 pool2d_5.tmp_0 0=1 4=1
Convolution      Conv_31                  1 1 pool2d_5.tmp_0 conv2d_209.tmp_0 0=40 1=1 11=1 2=1 12=1 3=1 13=1 4=0 14=0 15=0 16=0 5=1 6=6400
ReLU             Relu_4                   1 1 conv2d_209.tmp_0 relu_4.tmp_0
Convolution      Conv_32                  1 1 relu_4.tmp_0 conv2d_210.tmp_0 0=160 1=1 11=1 2=1 12=1 3=1 13=1 4=0 14=0 15=0 16=0 5=1 6=6400
HardSigmoid      HardSigmoid_4            1 1 conv2d_210.tmp_0 hardsigmoid_4.tmp_0 0=1.666667e-01 1=5.000000e-01
BinaryOp         Mul_20                   2 1 concat_6.tmp_0_splitncnn_0 hardsigmoid_4.tmp_0 elementwise_mul_4 0=2
Convolution      Conv_33                  1 1 elementwise_mul_4 conv2d_211.tmp_0 0=160 1=1 11=1 2=1 12=1 3=1 13=1 4=0 14=0 15=0 16=0 5=1 6=25600
HardSwish        Div_16                   1 1 conv2d_211.tmp_0 batch_norm_23.tmp_4 0=1.666667e-01 1=5.000000e-01
Concat           Concat_7                 2 1 split_2.tmp_0 batch_norm_23.tmp_4 concat_7.tmp_0 0=0
ShuffleChannel   Reshape_15               1 1 concat_7.tmp_0 reshape2_5.tmp_0 0=2 1=0
Slice            Split_3                  1 2 reshape2_5.tmp_0 split_3.tmp_0 split_3.tmp_1 -23300=2,160,-233 1=0
Convolution      Conv_34                  1 1 split_3.tmp_1 conv2d_212.tmp_0 0=120 1=1 11=1 2=1 12=1 3=1 13=1 4=0 14=0 15=0 16=0 5=1 6=19200
HardSwish        Div_17                   1 1 conv2d_212.tmp_0 batch_norm_24.tmp_4 0=1.666667e-01 1=5.000000e-01
Split            splitncnn_10             1 2 batch_norm_24.tmp_4 batch_norm_24.tmp_4_splitncnn_0 batch_norm_24.tmp_4_splitncnn_1
ConvolutionDepthWise Conv_35                  1 1 batch_norm_24.tmp_4_splitncnn_1 depthwise_conv2d_9.tmp_0 0=120 1=3 11=3 2=1 12=1 3=1 13=1 4=1 14=1 15=1 16=1 5=1 6=1080 7=120
Concat           Concat_8                 2 1 batch_norm_24.tmp_4_splitncnn_0 depthwise_conv2d_9.tmp_0 concat_8.tmp_0 0=0
Split            splitncnn_11             1 2 concat_8.tmp_0 concat_8.tmp_0_splitncnn_0 concat_8.tmp_0_splitncnn_1
Pooling          GlobalAveragePool_5      1 1 concat_8.tmp_0_splitncnn_1 pool2d_6.tmp_0 0=1 4=1
Convolution      Conv_36                  1 1 pool2d_6.tmp_0 conv2d_213.tmp_0 0=60 1=1 11=1 2=1 12=1 3=1 13=1 4=0 14=0 15=0 16=0 5=1 6=14400
ReLU             Relu_5                   1 1 conv2d_213.tmp_0 relu_5.tmp_0
Convolution      Conv_37                  1 1 relu_5.tmp_0 conv2d_214.tmp_0 0=240 1=1 11=1 2=1 12=1 3=1 13=1 4=0 14=0 15=0 16=0 5=1 6=14400
HardSigmoid      HardSigmoid_5            1 1 conv2d_214.tmp_0 hardsigmoid_5.tmp_0 0=1.666667e-01 1=5.000000e-01
BinaryOp         Mul_23                   2 1 concat_8.tmp_0_splitncnn_0 hardsigmoid_5.tmp_0 elementwise_mul_5 0=2
Convolution      Conv_38                  1 1 elementwise_mul_5 conv2d_215.tmp_0 0=160 1=1 11=1 2=1 12=1 3=1 13=1 4=0 14=0 15=0 16=0 5=1 6=38400
HardSwish        Div_18                   1 1 conv2d_215.tmp_0 batch_norm_26.tmp_4 0=1.666667e-01 1=5.000000e-01
Concat           Concat_9                 2 1 split_3.tmp_0 batch_norm_26.tmp_4 concat_9.tmp_0 0=0
ShuffleChannel   Reshape_19               1 1 concat_9.tmp_0 reshape2_7.tmp_0 0=2 1=0
Slice            Split_4                  1 2 reshape2_7.tmp_0 split_4.tmp_0 split_4.tmp_1 -23300=2,160,-233 1=0
Convolution      Conv_39                  1 1 split_4.tmp_1 conv2d_216.tmp_0 0=100 1=1 11=1 2=1 12=1 3=1 13=1 4=0 14=0 15=0 16=0 5=1 6=16000
HardSwish        Div_19                   1 1 conv2d_216.tmp_0 batch_norm_27.tmp_4 0=1.666667e-01 1=5.000000e-01
Split            splitncnn_12             1 2 batch_norm_27.tmp_4 batch_norm_27.tmp_4_splitncnn_0 batch_norm_27.tmp_4_splitncnn_1
ConvolutionDepthWise Conv_40                  1 1 batch_norm_27.tmp_4_splitncnn_1 depthwise_conv2d_10.tmp_0 0=100 1=3 11=3 2=1 12=1 3=1 13=1 4=1 14=1 15=1 16=1 5=1 6=900 7=100
Concat           Concat_10                2 1 batch_norm_27.tmp_4_splitncnn_0 depthwise_conv2d_10.tmp_0 concat_10.tmp_0 0=0
Split            splitncnn_13             1 2 concat_10.tmp_0 concat_10.tmp_0_splitncnn_0 concat_10.tmp_0_splitncnn_1
Pooling          GlobalAveragePool_6      1 1 concat_10.tmp_0_splitncnn_1 pool2d_7.tmp_0 0=1 4=1
Convolution      Conv_41                  1 1 pool2d_7.tmp_0 conv2d_217.tmp_0 0=50 1=1 11=1 2=1 12=1 3=1 13=1 4=0 14=0 15=0 16=0 5=1 6=10000
ReLU             Relu_6                   1 1 conv2d_217.tmp_0 relu_6.tmp_0
Convolution      Conv_42                  1 1 relu_6.tmp_0 conv2d_218.tmp_0 0=200 1=1 11=1 2=1 12=1 3=1 13=1 4=0 14=0 15=0 16=0 5=1 6=10000
HardSigmoid      HardSigmoid_6            1 1 conv2d_218.tmp_0 hardsigmoid_6.tmp_0 0=1.666667e-01 1=5.000000e-01
BinaryOp         Mul_26                   2 1 concat_10.tmp_0_splitncnn_0 hardsigmoid_6.tmp_0 elementwise_mul_6 0=2
Convolution      Conv_43                  1 1 elementwise_mul_6 conv2d_219.tmp_0 0=160 1=1 11=1 2=1 12=1 3=1 13=1 4=0 14=0 15=0 16=0 5=1 6=32000
HardSwish        Div_20                   1 1 conv2d_219.tmp_0 batch_norm_29.tmp_4 0=1.666667e-01 1=5.000000e-01
Concat           Concat_11                2 1 split_4.tmp_0 batch_norm_29.tmp_4 concat_11.tmp_0 0=0
ShuffleChannel   Reshape_23               1 1 concat_11.tmp_0 reshape2_9.tmp_0 0=2 1=0
Slice            Split_5                  1 2 reshape2_9.tmp_0 split_5.tmp_0 split_5.tmp_1 -23300=2,160,-233 1=0
Convolution      Conv_44                  1 1 split_5.tmp_1 conv2d_220.tmp_0 0=100 1=1 11=1 2=1 12=1 3=1 13=1 4=0 14=0 15=0 16=0 5=1 6=16000
HardSwish        Div_21                   1 1 conv2d_220.tmp_0 batch_norm_30.tmp_4 0=1.666667e-01 1=5.000000e-01
Split            splitncnn_14             1 2 batch_norm_30.tmp_4 batch_norm_30.tmp_4_splitncnn_0 batch_norm_30.tmp_4_splitncnn_1
ConvolutionDepthWise Conv_45                  1 1 batch_norm_30.tmp_4_splitncnn_1 depthwise_conv2d_11.tmp_0 0=100 1=3 11=3 2=1 12=1 3=1 13=1 4=1 14=1 15=1 16=1 5=1 6=900 7=100
Concat           Concat_12                2 1 batch_norm_30.tmp_4_splitncnn_0 depthwise_conv2d_11.tmp_0 concat_12.tmp_0 0=0
Split            splitncnn_15             1 2 concat_12.tmp_0 concat_12.tmp_0_splitncnn_0 concat_12.tmp_0_splitncnn_1
Pooling          GlobalAveragePool_7      1 1 concat_12.tmp_0_splitncnn_1 pool2d_8.tmp_0 0=1 4=1
Convolution      Conv_46                  1 1 pool2d_8.tmp_0 conv2d_221.tmp_0 0=50 1=1 11=1 2=1 12=1 3=1 13=1 4=0 14=0 15=0 16=0 5=1 6=10000
ReLU             Relu_7                   1 1 conv2d_221.tmp_0 relu_7.tmp_0
Convolution      Conv_47                  1 1 relu_7.tmp_0 conv2d_222.tmp_0 0=200 1=1 11=1 2=1 12=1 3=1 13=1 4=0 14=0 15=0 16=0 5=1 6=10000
HardSigmoid      HardSigmoid_7            1 1 conv2d_222.tmp_0 hardsigmoid_7.tmp_0 0=1.666667e-01 1=5.000000e-01
BinaryOp         Mul_29                   2 1 concat_12.tmp_0_splitncnn_0 hardsigmoid_7.tmp_0 elementwise_mul_7 0=2
Convolution      Conv_48                  1 1 elementwise_mul_7 conv2d_223.tmp_0 0=160 1=1 11=1 2=1 12=1 3=1 13=1 4=0 14=0 15=0 16=0 5=1 6=32000
HardSwish        Div_22                   1 1 conv2d_223.tmp_0 batch_norm_32.tmp_4 0=1.666667e-01 1=5.000000e-01
Concat           Concat_13                2 1 split_5.tmp_0 batch_norm_32.tmp_4 concat_13.tmp_0 0=0
ShuffleChannel   Reshape_27               1 1 concat_13.tmp_0 reshape2_11.tmp_0 0=2 1=0
Slice            Split_6                  1 2 reshape2_11.tmp_0 split_6.tmp_0 split_6.tmp_1 -23300=2,160,-233 1=0
Convolution      Conv_49                  1 1 split_6.tmp_1 conv2d_224.tmp_0 0=80 1=1 11=1 2=1 12=1 3=1 13=1 4=0 14=0 15=0 16=0 5=1 6=12800
HardSwish        Div_23                   1 1 conv2d_224.tmp_0 batch_norm_33.tmp_4 0=1.666667e-01 1=5.000000e-01
Split            splitncnn_16             1 2 batch_norm_33.tmp_4 batch_norm_33.tmp_4_splitncnn_0 batch_norm_33.tmp_4_splitncnn_1
ConvolutionDepthWise Conv_50                  1 1 batch_norm_33.tmp_4_splitncnn_1 depthwise_conv2d_12.tmp_0 0=80 1=3 11=3 2=1 12=1 3=1 13=1 4=1 14=1 15=1 16=1 5=1 6=720 7=80
Concat           Concat_14                2 1 batch_norm_33.tmp_4_splitncnn_0 depthwise_conv2d_12.tmp_0 concat_14.tmp_0 0=0
Split            splitncnn_17             1 2 concat_14.tmp_0 concat_14.tmp_0_splitncnn_0 concat_14.tmp_0_splitncnn_1
Pooling          GlobalAveragePool_8      1 1 concat_14.tmp_0_splitncnn_1 pool2d_9.tmp_0 0=1 4=1
Convolution      Conv_51                  1 1 pool2d_9.tmp_0 conv2d_225.tmp_0 0=40 1=1 11=1 2=1 12=1 3=1 13=1 4=0 14=0 15=0 16=0 5=1 6=6400
ReLU             Relu_8                   1 1 conv2d_225.tmp_0 relu_8.tmp_0
Convolution      Conv_52                  1 1 relu_8.tmp_0 conv2d_226.tmp_0 0=160 1=1 11=1 2=1 12=1 3=1 13=1 4=0 14=0 15=0 16=0 5=1 6=6400
HardSigmoid      HardSigmoid_8            1 1 conv2d_226.tmp_0 hardsigmoid_8.tmp_0 0=1.666667e-01 1=5.000000e-01
BinaryOp         Mul_32                   2 1 concat_14.tmp_0_splitncnn_0 hardsigmoid_8.tmp_0 elementwise_mul_8 0=2
Convolution      Conv_53                  1 1 elementwise_mul_8 conv2d_227.tmp_0 0=160 1=1 11=1 2=1 12=1 3=1 13=1 4=0 14=0 15=0 16=0 5=1 6=25600
HardSwish        Div_24                   1 1 conv2d_227.tmp_0 batch_norm_35.tmp_4 0=1.666667e-01 1=5.000000e-01
Concat           Concat_15                2 1 split_6.tmp_0 batch_norm_35.tmp_4 concat_15.tmp_0 0=0
ShuffleChannel   Reshape_31               1 1 concat_15.tmp_0 reshape2_13.tmp_0 0=2 1=0
Slice            Split_7                  1 2 reshape2_13.tmp_0 split_7.tmp_0 split_7.tmp_1 -23300=2,160,-233 1=0
Convolution      Conv_54                  1 1 split_7.tmp_1 conv2d_228.tmp_0 0=100 1=1 11=1 2=1 12=1 3=1 13=1 4=0 14=0 15=0 16=0 5=1 6=16000
HardSwish        Div_25                   1 1 conv2d_228.tmp_0 batch_norm_36.tmp_4 0=1.666667e-01 1=5.000000e-01
Split            splitncnn_18             1 2 batch_norm_36.tmp_4 batch_norm_36.tmp_4_splitncnn_0 batch_norm_36.tmp_4_splitncnn_1
ConvolutionDepthWise Conv_55                  1 1 batch_norm_36.tmp_4_splitncnn_1 depthwise_conv2d_13.tmp_0 0=100 1=3 11=3 2=1 12=1 3=1 13=1 4=1 14=1 15=1 16=1 5=1 6=900 7=100
Concat           Concat_16                2 1 batch_norm_36.tmp_4_splitncnn_0 depthwise_conv2d_13.tmp_0 concat_16.tmp_0 0=0
Split            splitncnn_19             1 2 concat_16.tmp_0 concat_16.tmp_0_splitncnn_0 concat_16.tmp_0_splitncnn_1
Pooling          GlobalAveragePool_9      1 1 concat_16.tmp_0_splitncnn_1 pool2d_10.tmp_0 0=1 4=1
Convolution      Conv_56                  1 1 pool2d_10.tmp_0 conv2d_229.tmp_0 0=50 1=1 11=1 2=1 12=1 3=1 13=1 4=0 14=0 15=0 16=0 5=1 6=10000
ReLU             Relu_9                   1 1 conv2d_229.tmp_0 relu_9.tmp_0
Convolution      Conv_57                  1 1 relu_9.tmp_0 conv2d_230.tmp_0 0=200 1=1 11=1 2=1 12=1 3=1 13=1 4=0 14=0 15=0 16=0 5=1 6=10000
HardSigmoid      HardSigmoid_9            1 1 conv2d_230.tmp_0 hardsigmoid_9.tmp_0 0=1.666667e-01 1=5.000000e-01
BinaryOp         Mul_35                   2 1 concat_16.tmp_0_splitncnn_0 hardsigmoid_9.tmp_0 elementwise_mul_9 0=2
Convolution      Conv_58                  1 1 elementwise_mul_9 conv2d_231.tmp_0 0=160 1=1 11=1 2=1 12=1 3=1 13=1 4=0 14=0 15=0 16=0 5=1 6=32000
HardSwish        Div_26                   1 1 conv2d_231.tmp_0 batch_norm_38.tmp_4 0=1.666667e-01 1=5.000000e-01
Concat           Concat_17                2 1 split_7.tmp_0 batch_norm_38.tmp_4 concat_17.tmp_0 0=0
ShuffleChannel   Reshape_35               1 1 concat_17.tmp_0 reshape2_15.tmp_0 0=2 1=0
Split            splitncnn_20             1 3 reshape2_15.tmp_0 reshape2_15.tmp_0_splitncnn_0 reshape2_15.tmp_0_splitncnn_1 reshape2_15.tmp_0_splitncnn_2
ConvolutionDepthWise Conv_59                  1 1 reshape2_15.tmp_0_splitncnn_2 depthwise_conv2d_14.tmp_0 0=320 1=3 11=3 2=1 12=1 3=2 13=2 4=1 14=1 15=1 16=1 5=1 6=2880 7=320
Convolution      Conv_60                  1 1 depthwise_conv2d_14.tmp_0 conv2d_232.tmp_0 0=320 1=1 11=1 2=1 12=1 3=1 13=1 4=0 14=0 15=0 16=0 5=1 6=102400
HardSwish        Div_27                   1 1 conv2d_232.tmp_0 batch_norm_40.tmp_4 0=1.666667e-01 1=5.000000e-01
Convolution      Conv_61                  1 1 reshape2_15.tmp_0_splitncnn_1 conv2d_233.tmp_0 0=320 1=1 11=1 2=1 12=1 3=1 13=1 4=0 14=0 15=0 16=0 5=1 6=102400
HardSwish        Div_28                   1 1 conv2d_233.tmp_0 batch_norm_41.tmp_4 0=1.666667e-01 1=5.000000e-01
ConvolutionDepthWise Conv_62                  1 1 batch_norm_41.tmp_4 depthwise_conv2d_15.tmp_0 0=320 1=3 11=3 2=1 12=1 3=2 13=2 4=1 14=1 15=1 16=1 5=1 6=2880 7=320
Split            splitncnn_21             1 2 depthwise_conv2d_15.tmp_0 depthwise_conv2d_15.tmp_0_splitncnn_0 depthwise_conv2d_15.tmp_0_splitncnn_1
Pooling          GlobalAveragePool_10     1 1 depthwise_conv2d_15.tmp_0_splitncnn_1 pool2d_11.tmp_0 0=1 4=1
Convolution      Conv_63                  1 1 pool2d_11.tmp_0 conv2d_234.tmp_0 0=80 1=1 11=1 2=1 12=1 3=1 13=1 4=0 14=0 15=0 16=0 5=1 6=25600
ReLU             Relu_10                  1 1 conv2d_234.tmp_0 relu_10.tmp_0
Convolution      Conv_64                  1 1 relu_10.tmp_0 conv2d_235.tmp_0 0=320 1=1 11=1 2=1 12=1 3=1 13=1 4=0 14=0 15=0 16=0 5=1 6=25600
HardSigmoid      HardSigmoid_10           1 1 conv2d_235.tmp_0 hardsigmoid_10.tmp_0 0=1.666667e-01 1=5.000000e-01
BinaryOp         Mul_39                   2 1 depthwise_conv2d_15.tmp_0_splitncnn_0 hardsigmoid_10.tmp_0 elementwise_mul_10 0=2
Convolution      Conv_65                  1 1 elementwise_mul_10 conv2d_236.tmp_0 0=320 1=1 11=1 2=1 12=1 3=1 13=1 4=0 14=0 15=0 16=0 5=1 6=102400
HardSwish        Div_29                   1 1 conv2d_236.tmp_0 batch_norm_43.tmp_4 0=1.666667e-01 1=5.000000e-01
Concat           Concat_18                2 1 batch_norm_40.tmp_4 batch_norm_43.tmp_4 concat_18.tmp_0 0=0
ConvolutionDepthWise Conv_66                  1 1 concat_18.tmp_0 depthwise_conv2d_16.tmp_0 0=640 1=3 11=3 2=1 12=1 3=1 13=1 4=1 14=1 15=1 16=1 5=1 6=5760 7=640
HardSwish        Div_30                   1 1 depthwise_conv2d_16.tmp_0 batch_norm_44.tmp_4 0=1.666667e-01 1=5.000000e-01
Convolution      Conv_67                  1 1 batch_norm_44.tmp_4 conv2d_237.tmp_0 0=640 1=1 11=1 2=1 12=1 3=1 13=1 4=0 14=0 15=0 16=0 5=1 6=409600
HardSwish        Div_31                   1 1 conv2d_237.tmp_0 batch_norm_45.tmp_4 0=1.666667e-01 1=5.000000e-01
Slice            Split_8                  1 2 batch_norm_45.tmp_4 split_8.tmp_0 split_8.tmp_1 -23300=2,320,-233 1=0
Convolution      Conv_68                  1 1 split_8.tmp_1 conv2d_238.tmp_0 0=200 1=1 11=1 2=1 12=1 3=1 13=1 4=0 14=0 15=0 16=0 5=1 6=64000
HardSwish        Div_32                   1 1 conv2d_238.tmp_0 batch_norm_46.tmp_4 0=1.666667e-01 1=5.000000e-01
Split            splitncnn_22             1 2 batch_norm_46.tmp_4 batch_norm_46.tmp_4_splitncnn_0 batch_norm_46.tmp_4_splitncnn_1
ConvolutionDepthWise Conv_69                  1 1 batch_norm_46.tmp_4_splitncnn_1 depthwise_conv2d_17.tmp_0 0=200 1=3 11=3 2=1 12=1 3=1 13=1 4=1 14=1 15=1 16=1 5=1 6=1800 7=200
Concat           Concat_19                2 1 batch_norm_46.tmp_4_splitncnn_0 depthwise_conv2d_17.tmp_0 concat_19.tmp_0 0=0
Split            splitncnn_23             1 2 concat_19.tmp_0 concat_19.tmp_0_splitncnn_0 concat_19.tmp_0_splitncnn_1
Pooling          GlobalAveragePool_11     1 1 concat_19.tmp_0_splitncnn_1 pool2d_12.tmp_0 0=1 4=1
Convolution      Conv_70                  1 1 pool2d_12.tmp_0 conv2d_239.tmp_0 0=100 1=1 11=1 2=1 12=1 3=1 13=1 4=0 14=0 15=0 16=0 5=1 6=40000
ReLU             Relu_11                  1 1 conv2d_239.tmp_0 relu_11.tmp_0
Convolution      Conv_71                  1 1 relu_11.tmp_0 conv2d_240.tmp_0 0=400 1=1 11=1 2=1 12=1 3=1 13=1 4=0 14=0 15=0 16=0 5=1 6=40000
HardSigmoid      HardSigmoid_11           1 1 conv2d_240.tmp_0 hardsigmoid_11.tmp_0 0=1.666667e-01 1=5.000000e-01
BinaryOp         Mul_44                   2 1 concat_19.tmp_0_splitncnn_0 hardsigmoid_11.tmp_0 elementwise_mul_11 0=2
Convolution      Conv_72                  1 1 elementwise_mul_11 conv2d_241.tmp_0 0=320 1=1 11=1 2=1 12=1 3=1 13=1 4=0 14=0 15=0 16=0 5=1 6=128000
HardSwish        Div_33                   1 1 conv2d_241.tmp_0 batch_norm_48.tmp_4 0=1.666667e-01 1=5.000000e-01
Concat           Concat_20                2 1 split_8.tmp_0 batch_norm_48.tmp_4 concat_20.tmp_0 0=0
ShuffleChannel   Reshape_41               1 1 concat_20.tmp_0 reshape2_17.tmp_0 0=2 1=0
Slice            Split_9                  1 2 reshape2_17.tmp_0 split_9.tmp_0 split_9.tmp_1 -23300=2,320,-233 1=0
Convolution      Conv_73                  1 1 split_9.tmp_1 conv2d_242.tmp_0 0=240 1=1 11=1 2=1 12=1 3=1 13=1 4=0 14=0 15=0 16=0 5=1 6=76800
HardSwish        Div_34                   1 1 conv2d_242.tmp_0 batch_norm_49.tmp_4 0=1.666667e-01 1=5.000000e-01
Split            splitncnn_24             1 2 batch_norm_49.tmp_4 batch_norm_49.tmp_4_splitncnn_0 batch_norm_49.tmp_4_splitncnn_1
ConvolutionDepthWise Conv_74                  1 1 batch_norm_49.tmp_4_splitncnn_1 depthwise_conv2d_18.tmp_0 0=240 1=3 11=3 2=1 12=1 3=1 13=1 4=1 14=1 15=1 16=1 5=1 6=2160 7=240
Concat           Concat_21                2 1 batch_norm_49.tmp_4_splitncnn_0 depthwise_conv2d_18.tmp_0 concat_21.tmp_0 0=0
Split            splitncnn_25             1 2 concat_21.tmp_0 concat_21.tmp_0_splitncnn_0 concat_21.tmp_0_splitncnn_1
Pooling          GlobalAveragePool_12     1 1 concat_21.tmp_0_splitncnn_1 pool2d_13.tmp_0 0=1 4=1
Convolution      Conv_75                  1 1 pool2d_13.tmp_0 conv2d_243.tmp_0 0=120 1=1 11=1 2=1 12=1 3=1 13=1 4=0 14=0 15=0 16=0 5=1 6=57600
ReLU             Relu_12                  1 1 conv2d_243.tmp_0 relu_12.tmp_0
Convolution      Conv_76                  1 1 relu_12.tmp_0 conv2d_244.tmp_0 0=480 1=1 11=1 2=1 12=1 3=1 13=1 4=0 14=0 15=0 16=0 5=1 6=57600
HardSigmoid      HardSigmoid_12           1 1 conv2d_244.tmp_0 hardsigmoid_12.tmp_0 0=1.666667e-01 1=5.000000e-01
BinaryOp         Mul_47                   2 1 concat_21.tmp_0_splitncnn_0 hardsigmoid_12.tmp_0 elementwise_mul_12 0=2
Convolution      Conv_77                  1 1 elementwise_mul_12 conv2d_245.tmp_0 0=320 1=1 11=1 2=1 12=1 3=1 13=1 4=0 14=0 15=0 16=0 5=1 6=153600
HardSwish        Div_35                   1 1 conv2d_245.tmp_0 batch_norm_51.tmp_4 0=1.666667e-01 1=5.000000e-01
Concat           Concat_22                2 1 split_9.tmp_0 batch_norm_51.tmp_4 concat_22.tmp_0 0=0
ShuffleChannel   Reshape_45               1 1 concat_22.tmp_0 reshape2_19.tmp_0 0=2 1=0
Convolution      Conv_78                  1 1 reshape2_3.tmp_0_splitncnn_0 conv2d_246.tmp_0 0=128 1=1 11=1 2=1 12=1 3=1 13=1 4=0 14=0 15=0 16=0 5=1 6=20480
HardSwish        Div_36                   1 1 conv2d_246.tmp_0 hardswish_0.tmp_0 0=1.666667e-01 1=5.000000e-01
Convolution      Conv_79                  1 1 reshape2_15.tmp_0_splitncnn_0 conv2d_247.tmp_0 0=128 1=1 11=1 2=1 12=1 3=1 13=1 4=0 14=0 15=0 16=0 5=1 6=40960
HardSwish        Div_37                   1 1 conv2d_247.tmp_0 hardswish_1.tmp_0 0=1.666667e-01 1=5.000000e-01
Convolution      Conv_80                  1 1 reshape2_19.tmp_0 conv2d_248.tmp_0 0=128 1=1 11=1 2=1 12=1 3=1 13=1 4=0 14=0 15=0 16=0 5=1 6=81920
HardSwish        Div_38                   1 1 conv2d_248.tmp_0 hardswish_2.tmp_0 0=1.666667e-01 1=5.000000e-01
Split            splitncnn_26             1 3 hardswish_2.tmp_0 hardswish_2.tmp_0_splitncnn_0 hardswish_2.tmp_0_splitncnn_1 hardswish_2.tmp_0_splitncnn_2
Interp           Resize_0                 1 1 hardswish_2.tmp_0_splitncnn_2 nearest_interp_v2_0.tmp_0 0=1 1=2.000000e+00 2=2.000000e+00 3=0 4=0 6=0
Concat           Concat_23                2 1 nearest_interp_v2_0.tmp_0 hardswish_1.tmp_0 concat_23.tmp_0 0=0
Split            splitncnn_27             1 2 concat_23.tmp_0 concat_23.tmp_0_splitncnn_0 concat_23.tmp_0_splitncnn_1
Convolution      Conv_81                  1 1 concat_23.tmp_0_splitncnn_1 conv2d_249.tmp_0 0=64 1=1 11=1 2=1 12=1 3=1 13=1 4=0 14=0 15=0 16=0 5=1 6=16384
HardSwish        Div_39                   1 1 conv2d_249.tmp_0 hardswish_3.tmp_0 0=1.666667e-01 1=5.000000e-01
Convolution      Conv_82                  1 1 concat_23.tmp_0_splitncnn_0 conv2d_250.tmp_0 0=64 1=1 11=1 2=1 12=1 3=1 13=1 4=0 14=0 15=0 16=0 5=1 6=16384
HardSwish        Div_40                   1 1 conv2d_250.tmp_0 hardswish_4.tmp_0 0=1.666667e-01 1=5.000000e-01
Convolution      Conv_83                  1 1 hardswish_4.tmp_0 conv2d_251.tmp_0 0=64 1=1 11=1 2=1 12=1 3=1 13=1 4=0 14=0 15=0 16=0 5=1 6=4096
HardSwish        Div_41                   1 1 conv2d_251.tmp_0 hardswish_5.tmp_0 0=1.666667e-01 1=5.000000e-01
ConvolutionDepthWise Conv_84                  1 1 hardswish_5.tmp_0 depthwise_conv2d_19.tmp_0 0=64 1=5 11=5 2=1 12=1 3=1 13=1 4=2 14=2 15=2 16=2 5=1 6=1600 7=64
HardSwish        Div_42                   1 1 depthwise_conv2d_19.tmp_0 hardswish_6.tmp_0 0=1.666667e-01 1=5.000000e-01
Convolution      Conv_85                  1 1 hardswish_6.tmp_0 conv2d_252.tmp_0 0=64 1=1 11=1 2=1 12=1 3=1 13=1 4=0 14=0 15=0 16=0 5=1 6=4096
HardSwish        Div_43                   1 1 conv2d_252.tmp_0 hardswish_7.tmp_0 0=1.666667e-01 1=5.000000e-01
Concat           Concat_24                2 1 hardswish_7.tmp_0 hardswish_3.tmp_0 concat_24.tmp_0 0=0
Convolution      Conv_86                  1 1 concat_24.tmp_0 conv2d_253.tmp_0 0=128 1=1 11=1 2=1 12=1 3=1 13=1 4=0 14=0 15=0 16=0 5=1 6=16384
HardSwish        Div_44                   1 1 conv2d_253.tmp_0 hardswish_8.tmp_0 0=1.666667e-01 1=5.000000e-01
Split            splitncnn_28             1 2 hardswish_8.tmp_0 hardswish_8.tmp_0_splitncnn_0 hardswish_8.tmp_0_splitncnn_1
Interp           Resize_1                 1 1 hardswish_8.tmp_0_splitncnn_1 nearest_interp_v2_1.tmp_0 0=1 1=2.000000e+00 2=2.000000e+00 3=0 4=0 6=0
Concat           Concat_25                2 1 nearest_interp_v2_1.tmp_0 hardswish_0.tmp_0 concat_25.tmp_0 0=0
Split            splitncnn_29             1 2 concat_25.tmp_0 concat_25.tmp_0_splitncnn_0 concat_25.tmp_0_splitncnn_1
Convolution      Conv_87                  1 1 concat_25.tmp_0_splitncnn_1 conv2d_254.tmp_0 0=64 1=1 11=1 2=1 12=1 3=1 13=1 4=0 14=0 15=0 16=0 5=1 6=16384
HardSwish        Div_45                   1 1 conv2d_254.tmp_0 hardswish_9.tmp_0 0=1.666667e-01 1=5.000000e-01
Convolution      Conv_88                  1 1 concat_25.tmp_0_splitncnn_0 conv2d_255.tmp_0 0=64 1=1 11=1 2=1 12=1 3=1 13=1 4=0 14=0 15=0 16=0 5=1 6=16384
HardSwish        Div_46                   1 1 conv2d_255.tmp_0 hardswish_10.tmp_0 0=1.666667e-01 1=5.000000e-01
Convolution      Conv_89                  1 1 hardswish_10.tmp_0 conv2d_256.tmp_0 0=64 1=1 11=1 2=1 12=1 3=1 13=1 4=0 14=0 15=0 16=0 5=1 6=4096
HardSwish        Div_47                   1 1 conv2d_256.tmp_0 hardswish_11.tmp_0 0=1.666667e-01 1=5.000000e-01
ConvolutionDepthWise Conv_90                  1 1 hardswish_11.tmp_0 depthwise_conv2d_20.tmp_0 0=64 1=5 11=5 2=1 12=1 3=1 13=1 4=2 14=2 15=2 16=2 5=1 6=1600 7=64
HardSwish        Div_48                   1 1 depthwise_conv2d_20.tmp_0 hardswish_12.tmp_0 0=1.666667e-01 1=5.000000e-01
Convolution      Conv_91                  1 1 hardswish_12.tmp_0 conv2d_257.tmp_0 0=64 1=1 11=1 2=1 12=1 3=1 13=1 4=0 14=0 15=0 16=0 5=1 6=4096
HardSwish        Div_49                   1 1 conv2d_257.tmp_0 hardswish_13.tmp_0 0=1.666667e-01 1=5.000000e-01
Concat           Concat_26                2 1 hardswish_13.tmp_0 hardswish_9.tmp_0 concat_26.tmp_0 0=0
Convolution      Conv_92                  1 1 concat_26.tmp_0 conv2d_258.tmp_0 0=128 1=1 11=1 2=1 12=1 3=1 13=1 4=0 14=0 15=0 16=0 5=1 6=16384
HardSwish        Div_50                   1 1 conv2d_258.tmp_0 hardswish_14.tmp_0 0=1.666667e-01 1=5.000000e-01
Split            splitncnn_30             1 3 hardswish_14.tmp_0 hardswish_14.tmp_0_splitncnn_0 hardswish_14.tmp_0_splitncnn_1 hardswish_14.tmp_0_splitncnn_2
ConvolutionDepthWise Conv_93                  1 1 hardswish_14.tmp_0_splitncnn_2 depthwise_conv2d_21.tmp_0 0=128 1=5 11=5 2=1 12=1 3=2 13=2 4=2 14=2 15=2 16=2 5=1 6=3200 7=128
HardSwish        Div_51                   1 1 depthwise_conv2d_21.tmp_0 hardswish_15.tmp_0 0=1.666667e-01 1=5.000000e-01
Convolution      Conv_94                  1 1 hardswish_15.tmp_0 conv2d_259.tmp_0 0=128 1=1 11=1 2=1 12=1 3=1 13=1 4=0 14=0 15=0 16=0 5=1 6=16384
HardSwish        Div_52                   1 1 conv2d_259.tmp_0 hardswish_16.tmp_0 0=1.666667e-01 1=5.000000e-01
Concat           Concat_27                2 1 hardswish_16.tmp_0 hardswish_8.tmp_0_splitncnn_0 concat_27.tmp_0 0=0
Split            splitncnn_31             1 2 concat_27.tmp_0 concat_27.tmp_0_splitncnn_0 concat_27.tmp_0_splitncnn_1
Convolution      Conv_95                  1 1 concat_27.tmp_0_splitncnn_1 conv2d_260.tmp_0 0=64 1=1 11=1 2=1 12=1 3=1 13=1 4=0 14=0 15=0 16=0 5=1 6=16384
HardSwish        Div_53                   1 1 conv2d_260.tmp_0 hardswish_17.tmp_0 0=1.666667e-01 1=5.000000e-01
Convolution      Conv_96                  1 1 concat_27.tmp_0_splitncnn_0 conv2d_261.tmp_0 0=64 1=1 11=1 2=1 12=1 3=1 13=1 4=0 14=0 15=0 16=0 5=1 6=16384
HardSwish        Div_54                   1 1 conv2d_261.tmp_0 hardswish_18.tmp_0 0=1.666667e-01 1=5.000000e-01
Convolution      Conv_97                  1 1 hardswish_18.tmp_0 conv2d_262.tmp_0 0=64 1=1 11=1 2=1 12=1 3=1 13=1 4=0 14=0 15=0 16=0 5=1 6=4096
HardSwish        Div_55                   1 1 conv2d_262.tmp_0 hardswish_19.tmp_0 0=1.666667e-01 1=5.000000e-01
ConvolutionDepthWise Conv_98                  1 1 hardswish_19.tmp_0 depthwise_conv2d_22.tmp_0 0=64 1=5 11=5 2=1 12=1 3=1 13=1 4=2 14=2 15=2 16=2 5=1 6=1600 7=64
HardSwish        Div_56                   1 1 depthwise_conv2d_22.tmp_0 hardswish_20.tmp_0 0=1.666667e-01 1=5.000000e-01
Convolution      Conv_99                  1 1 hardswish_20.tmp_0 conv2d_263.tmp_0 0=64 1=1 11=1 2=1 12=1 3=1 13=1 4=0 14=0 15=0 16=0 5=1 6=4096
HardSwish        Div_57                   1 1 conv2d_263.tmp_0 hardswish_21.tmp_0 0=1.666667e-01 1=5.000000e-01
Concat           Concat_28                2 1 hardswish_21.tmp_0 hardswish_17.tmp_0 concat_28.tmp_0 0=0
Convolution      Conv_100                 1 1 concat_28.tmp_0 conv2d_264.tmp_0 0=128 1=1 11=1 2=1 12=1 3=1 13=1 4=0 14=0 15=0 16=0 5=1 6=16384
HardSwish        Div_58                   1 1 conv2d_264.tmp_0 hardswish_22.tmp_0 0=1.666667e-01 1=5.000000e-01
Split            splitncnn_32             1 3 hardswish_22.tmp_0 hardswish_22.tmp_0_splitncnn_0 hardswish_22.tmp_0_splitncnn_1 hardswish_22.tmp_0_splitncnn_2
ConvolutionDepthWise Conv_101                 1 1 hardswish_22.tmp_0_splitncnn_2 depthwise_conv2d_23.tmp_0 0=128 1=5 11=5 2=1 12=1 3=2 13=2 4=2 14=2 15=2 16=2 5=1 6=3200 7=128
HardSwish        Div_59                   1 1 depthwise_conv2d_23.tmp_0 hardswish_23.tmp_0 0=1.666667e-01 1=5.000000e-01
Convolution      Conv_102                 1 1 hardswish_23.tmp_0 conv2d_265.tmp_0 0=128 1=1 11=1 2=1 12=1 3=1 13=1 4=0 14=0 15=0 16=0 5=1 6=16384
HardSwish        Div_60                   1 1 conv2d_265.tmp_0 hardswish_24.tmp_0 0=1.666667e-01 1=5.000000e-01
Concat           Concat_29                2 1 hardswish_24.tmp_0 hardswish_2.tmp_0_splitncnn_1 concat_29.tmp_0 0=0
Split            splitncnn_33             1 2 concat_29.tmp_0 concat_29.tmp_0_splitncnn_0 concat_29.tmp_0_splitncnn_1
Convolution      Conv_103                 1 1 concat_29.tmp_0_splitncnn_1 conv2d_266.tmp_0 0=64 1=1 11=1 2=1 12=1 3=1 13=1 4=0 14=0 15=0 16=0 5=1 6=16384
HardSwish        Div_61                   1 1 conv2d_266.tmp_0 hardswish_25.tmp_0 0=1.666667e-01 1=5.000000e-01
Convolution      Conv_104                 1 1 concat_29.tmp_0_splitncnn_0 conv2d_267.tmp_0 0=64 1=1 11=1 2=1 12=1 3=1 13=1 4=0 14=0 15=0 16=0 5=1 6=16384
HardSwish        Div_62                   1 1 conv2d_267.tmp_0 hardswish_26.tmp_0 0=1.666667e-01 1=5.000000e-01
Convolution      Conv_105                 1 1 hardswish_26.tmp_0 conv2d_268.tmp_0 0=64 1=1 11=1 2=1 12=1 3=1 13=1 4=0 14=0 15=0 16=0 5=1 6=4096
HardSwish        Div_63                   1 1 conv2d_268.tmp_0 hardswish_27.tmp_0 0=1.666667e-01 1=5.000000e-01
ConvolutionDepthWise Conv_106                 1 1 hardswish_27.tmp_0 depthwise_conv2d_24.tmp_0 0=64 1=5 11=5 2=1 12=1 3=1 13=1 4=2 14=2 15=2 16=2 5=1 6=1600 7=64
HardSwish        Div_64                   1 1 depthwise_conv2d_24.tmp_0 hardswish_28.tmp_0 0=1.666667e-01 1=5.000000e-01
Convolution      Conv_107                 1 1 hardswish_28.tmp_0 conv2d_269.tmp_0 0=64 1=1 11=1 2=1 12=1 3=1 13=1 4=0 14=0 15=0 16=0 5=1 6=4096
HardSwish        Div_65                   1 1 conv2d_269.tmp_0 hardswish_29.tmp_0 0=1.666667e-01 1=5.000000e-01
Concat           Concat_30                2 1 hardswish_29.tmp_0 hardswish_25.tmp_0 concat_30.tmp_0 0=0
Convolution      Conv_108                 1 1 concat_30.tmp_0 conv2d_270.tmp_0 0=128 1=1 11=1 2=1 12=1 3=1 13=1 4=0 14=0 15=0 16=0 5=1 6=16384
HardSwish        Div_66                   1 1 conv2d_270.tmp_0 hardswish_30.tmp_0 0=1.666667e-01 1=5.000000e-01
Split            splitncnn_34             1 3 hardswish_30.tmp_0 hardswish_30.tmp_0_splitncnn_0 hardswish_30.tmp_0_splitncnn_1 hardswish_30.tmp_0_splitncnn_2
ConvolutionDepthWise Conv_109                 1 1 hardswish_2.tmp_0_splitncnn_0 depthwise_conv2d_25.tmp_0 0=128 1=5 11=5 2=1 12=1 3=2 13=2 4=2 14=2 15=2 16=2 5=1 6=3200 7=128
HardSwish        Div_67                   1 1 depthwise_conv2d_25.tmp_0 hardswish_31.tmp_0 0=1.666667e-01 1=5.000000e-01
Convolution      Conv_110                 1 1 hardswish_31.tmp_0 conv2d_271.tmp_0 0=128 1=1 11=1 2=1 12=1 3=1 13=1 4=0 14=0 15=0 16=0 5=1 6=16384
HardSwish        Div_68                   1 1 conv2d_271.tmp_0 hardswish_32.tmp_0 0=1.666667e-01 1=5.000000e-01
ConvolutionDepthWise Conv_111                 1 1 hardswish_30.tmp_0_splitncnn_2 depthwise_conv2d_26.tmp_0 0=128 1=5 11=5 2=1 12=1 3=2 13=2 4=2 14=2 15=2 16=2 5=1 6=3200 7=128
HardSwish        Div_69                   1 1 depthwise_conv2d_26.tmp_0 hardswish_33.tmp_0 0=1.666667e-01 1=5.000000e-01
Convolution      Conv_112                 1 1 hardswish_33.tmp_0 conv2d_272.tmp_0 0=128 1=1 11=1 2=1 12=1 3=1 13=1 4=0 14=0 15=0 16=0 5=1 6=16384
HardSwish        Div_70                   1 1 conv2d_272.tmp_0 hardswish_34.tmp_0 0=1.666667e-01 1=5.000000e-01
BinaryOp         Add_97                   2 1 hardswish_32.tmp_0 hardswish_34.tmp_0 tmp_0 0=0
Split            splitncnn_35             1 2 tmp_0 tmp_0_splitncnn_0 tmp_0_splitncnn_1
ConvolutionDepthWise Conv_113                 1 1 hardswish_14.tmp_0_splitncnn_1 depthwise_conv2d_27.tmp_0 0=128 1=5 11=5 2=1 12=1 3=1 13=1 4=2 14=2 15=2 16=2 5=1 6=3200 7=128
HardSwish        Div_71                   1 1 depthwise_conv2d_27.tmp_0 hardswish_35.tmp_0 0=1.666667e-01 1=5.000000e-01
ConvolutionDepthWise Conv_114                 1 1 hardswish_14.tmp_0_splitncnn_0 depthwise_conv2d_28.tmp_0 0=128 1=5 11=5 2=1 12=1 3=1 13=1 4=2 14=2 15=2 16=2 5=1 6=3200 7=128
HardSwish        Div_72                   1 1 depthwise_conv2d_28.tmp_0 hardswish_36.tmp_0 0=1.666667e-01 1=5.000000e-01
Convolution      Conv_115                 1 1 hardswish_35.tmp_0 conv2d_273.tmp_0 0=128 1=1 11=1 2=1 12=1 3=1 13=1 4=0 14=0 15=0 16=0 5=1 6=16384
HardSwish        Div_73                   1 1 conv2d_273.tmp_0 hardswish_37.tmp_0 0=1.666667e-01 1=5.000000e-01
Convolution      Conv_116                 1 1 hardswish_36.tmp_0 conv2d_274.tmp_0 0=128 1=1 11=1 2=1 12=1 3=1 13=1 4=0 14=0 15=0 16=0 5=1 6=16384
HardSwish        Div_74                   1 1 conv2d_274.tmp_0 hardswish_38.tmp_0 0=1.666667e-01 1=5.000000e-01
ConvolutionDepthWise Conv_117                 1 1 hardswish_37.tmp_0 depthwise_conv2d_29.tmp_0 0=128 1=5 11=5 2=1 12=1 3=1 13=1 4=2 14=2 15=2 16=2 5=1 6=3200 7=128
HardSwish        Div_75                   1 1 depthwise_conv2d_29.tmp_0 hardswish_39.tmp_0 0=1.666667e-01 1=5.000000e-01
ConvolutionDepthWise Conv_118                 1 1 hardswish_38.tmp_0 depthwise_conv2d_30.tmp_0 0=128 1=5 11=5 2=1 12=1 3=1 13=1 4=2 14=2 15=2 16=2 5=1 6=3200 7=128
HardSwish        Div_76                   1 1 depthwise_conv2d_30.tmp_0 hardswish_40.tmp_0 0=1.666667e-01 1=5.000000e-01
Convolution      Conv_119                 1 1 hardswish_39.tmp_0 conv2d_275.tmp_0 0=128 1=1 11=1 2=1 12=1 3=1 13=1 4=0 14=0 15=0 16=0 5=1 6=16384
HardSwish        Div_77                   1 1 conv2d_275.tmp_0 hardswish_41.tmp_0 0=1.666667e-01 1=5.000000e-01
Convolution      Conv_120                 1 1 hardswish_40.tmp_0 conv2d_276.tmp_0 0=128 1=1 11=1 2=1 12=1 3=1 13=1 4=0 14=0 15=0 16=0 5=1 6=16384
HardSwish        Div_78                   1 1 conv2d_276.tmp_0 hardswish_42.tmp_0 0=1.666667e-01 1=5.000000e-01
ConvolutionDepthWise Conv_121                 1 1 hardswish_41.tmp_0 depthwise_conv2d_31.tmp_0 0=128 1=5 11=5 2=1 12=1 3=1 13=1 4=2 14=2 15=2 16=2 5=1 6=3200 7=128
HardSwish        Div_79                   1 1 depthwise_conv2d_31.tmp_0 hardswish_43.tmp_0 0=1.666667e-01 1=5.000000e-01
ConvolutionDepthWise Conv_122                 1 1 hardswish_42.tmp_0 depthwise_conv2d_32.tmp_0 0=128 1=5 11=5 2=1 12=1 3=1 13=1 4=2 14=2 15=2 16=2 5=1 6=3200 7=128
HardSwish        Div_80                   1 1 depthwise_conv2d_32.tmp_0 hardswish_44.tmp_0 0=1.666667e-01 1=5.000000e-01
Convolution      Conv_123                 1 1 hardswish_43.tmp_0 conv2d_277.tmp_0 0=128 1=1 11=1 2=1 12=1 3=1 13=1 4=0 14=0 15=0 16=0 5=1 6=16384
HardSwish        Div_81                   1 1 conv2d_277.tmp_0 hardswish_45.tmp_0 0=1.666667e-01 1=5.000000e-01
Convolution      Conv_124                 1 1 hardswish_44.tmp_0 conv2d_278.tmp_0 0=128 1=1 11=1 2=1 12=1 3=1 13=1 4=0 14=0 15=0 16=0 5=1 6=16384
HardSwish        Div_82                   1 1 conv2d_278.tmp_0 hardswish_46.tmp_0 0=1.666667e-01 1=5.000000e-01
ConvolutionDepthWise Conv_125                 1 1 hardswish_45.tmp_0 depthwise_conv2d_33.tmp_0 0=128 1=5 11=5 2=1 12=1 3=1 13=1 4=2 14=2 15=2 16=2 5=1 6=3200 7=128
HardSwish        Div_83                   1 1 depthwise_conv2d_33.tmp_0 hardswish_47.tmp_0 0=1.666667e-01 1=5.000000e-01
ConvolutionDepthWise Conv_126                 1 1 hardswish_46.tmp_0 depthwise_conv2d_34.tmp_0 0=128 1=5 11=5 2=1 12=1 3=1 13=1 4=2 14=2 15=2 16=2 5=1 6=3200 7=128
HardSwish        Div_84                   1 1 depthwise_conv2d_34.tmp_0 hardswish_48.tmp_0 0=1.666667e-01 1=5.000000e-01
Convolution      Conv_127                 1 1 hardswish_47.tmp_0 conv2d_279.tmp_0 0=128 1=1 11=1 2=1 12=1 3=1 13=1 4=0 14=0 15=0 16=0 5=1 6=16384
HardSwish        Div_85                   1 1 conv2d_279.tmp_0 hardswish_49.tmp_0 0=1.666667e-01 1=5.000000e-01
Convolution      Conv_128                 1 1 hardswish_48.tmp_0 conv2d_280.tmp_0 0=128 1=1 11=1 2=1 12=1 3=1 13=1 4=0 14=0 15=0 16=0 5=1 6=16384
HardSwish        Div_86                   1 1 conv2d_280.tmp_0 hardswish_50.tmp_0 0=1.666667e-01 1=5.000000e-01
Convolution      Conv_129                 1 1 hardswish_49.tmp_0 conv2d_281.tmp_0 0=80 1=1 11=1 2=1 12=1 3=1 13=1 4=0 14=0 15=0 16=0 5=1 6=10240
Convolution      Conv_130                 1 1 hardswish_50.tmp_0 conv2d_282.tmp_0 0=32 1=1 11=1 2=1 12=1 3=1 13=1 4=0 14=0 15=0 16=0 5=1 6=4096
Sigmoid          Sigmoid_0                1 1 conv2d_281.tmp_0 sigmoid_0.tmp_0
Reshape          Reshape_48               1 1 sigmoid_0.tmp_0 reshape2_20.tmp_0 0=-1 1=80
Permute          Transpose_10             1 1 reshape2_20.tmp_0 save_infer_model/scale_0.tmp_1 0=1
Reshape          Reshape_49               1 1 conv2d_282.tmp_0 reshape2_21.tmp_0 0=-1 1=32
Permute          Transpose_11             1 1 reshape2_21.tmp_0 save_infer_model/scale_4.tmp_1 0=1
ConvolutionDepthWise Conv_131                 1 1 hardswish_22.tmp_0_splitncnn_1 depthwise_conv2d_35.tmp_0 0=128 1=5 11=5 2=1 12=1 3=1 13=1 4=2 14=2 15=2 16=2 5=1 6=3200 7=128
HardSwish        Div_87                   1 1 depthwise_conv2d_35.tmp_0 hardswish_51.tmp_0 0=1.666667e-01 1=5.000000e-01
ConvolutionDepthWise Conv_132                 1 1 hardswish_22.tmp_0_splitncnn_0 depthwise_conv2d_36.tmp_0 0=128 1=5 11=5 2=1 12=1 3=1 13=1 4=2 14=2 15=2 16=2 5=1 6=3200 7=128
HardSwish        Div_88                   1 1 depthwise_conv2d_36.tmp_0 hardswish_52.tmp_0 0=1.666667e-01 1=5.000000e-01
Convolution      Conv_133                 1 1 hardswish_51.tmp_0 conv2d_283.tmp_0 0=128 1=1 11=1 2=1 12=1 3=1 13=1 4=0 14=0 15=0 16=0 5=1 6=16384
HardSwish        Div_89                   1 1 conv2d_283.tmp_0 hardswish_53.tmp_0 0=1.666667e-01 1=5.000000e-01
Convolution      Conv_134                 1 1 hardswish_52.tmp_0 conv2d_284.tmp_0 0=128 1=1 11=1 2=1 12=1 3=1 13=1 4=0 14=0 15=0 16=0 5=1 6=16384
HardSwish        Div_90                   1 1 conv2d_284.tmp_0 hardswish_54.tmp_0 0=1.666667e-01 1=5.000000e-01
ConvolutionDepthWise Conv_135                 1 1 hardswish_53.tmp_0 depthwise_conv2d_37.tmp_0 0=128 1=5 11=5 2=1 12=1 3=1 13=1 4=2 14=2 15=2 16=2 5=1 6=3200 7=128
HardSwish        Div_91                   1 1 depthwise_conv2d_37.tmp_0 hardswish_55.tmp_0 0=1.666667e-01 1=5.000000e-01
ConvolutionDepthWise Conv_136                 1 1 hardswish_54.tmp_0 depthwise_conv2d_38.tmp_0 0=128 1=5 11=5 2=1 12=1 3=1 13=1 4=2 14=2 15=2 16=2 5=1 6=3200 7=128
HardSwish        Div_92                   1 1 depthwise_conv2d_38.tmp_0 hardswish_56.tmp_0 0=1.666667e-01 1=5.000000e-01
Convolution      Conv_137                 1 1 hardswish_55.tmp_0 conv2d_285.tmp_0 0=128 1=1 11=1 2=1 12=1 3=1 13=1 4=0 14=0 15=0 16=0 5=1 6=16384
HardSwish        Div_93                   1 1 conv2d_285.tmp_0 hardswish_57.tmp_0 0=1.666667e-01 1=5.000000e-01
Convolution      Conv_138                 1 1 hardswish_56.tmp_0 conv2d_286.tmp_0 0=128 1=1 11=1 2=1 12=1 3=1 13=1 4=0 14=0 15=0 16=0 5=1 6=16384
HardSwish        Div_94                   1 1 conv2d_286.tmp_0 hardswish_58.tmp_0 0=1.666667e-01 1=5.000000e-01
ConvolutionDepthWise Conv_139                 1 1 hardswish_57.tmp_0 depthwise_conv2d_39.tmp_0 0=128 1=5 11=5 2=1 12=1 3=1 13=1 4=2 14=2 15=2 16=2 5=1 6=3200 7=128
HardSwish        Div_95                   1 1 depthwise_conv2d_39.tmp_0 hardswish_59.tmp_0 0=1.666667e-01 1=5.000000e-01
ConvolutionDepthWise Conv_140                 1 1 hardswish_58.tmp_0 depthwise_conv2d_40.tmp_0 0=128 1=5 11=5 2=1 12=1 3=1 13=1 4=2 14=2 15=2 16=2 5=1 6=3200 7=128
HardSwish        Div_96                   1 1 depthwise_conv2d_40.tmp_0 hardswish_60.tmp_0 0=1.666667e-01 1=5.000000e-01
Convolution      Conv_141                 1 1 hardswish_59.tmp_0 conv2d_287.tmp_0 0=128 1=1 11=1 2=1 12=1 3=1 13=1 4=0 14=0 15=0 16=0 5=1 6=16384
HardSwish        Div_97                   1 1 conv2d_287.tmp_0 hardswish_61.tmp_0 0=1.666667e-01 1=5.000000e-01
Convolution      Conv_142                 1 1 hardswish_60.tmp_0 conv2d_288.tmp_0 0=128 1=1 11=1 2=1 12=1 3=1 13=1 4=0 14=0 15=0 16=0 5=1 6=16384
HardSwish        Div_98                   1 1 conv2d_288.tmp_0 hardswish_62.tmp_0 0=1.666667e-01 1=5.000000e-01
ConvolutionDepthWise Conv_143                 1 1 hardswish_61.tmp_0 depthwise_conv2d_41.tmp_0 0=128 1=5 11=5 2=1 12=1 3=1 13=1 4=2 14=2 15=2 16=2 5=1 6=3200 7=128
HardSwish        Div_99                   1 1 depthwise_conv2d_41.tmp_0 hardswish_63.tmp_0 0=1.666667e-01 1=5.000000e-01
ConvolutionDepthWise Conv_144                 1 1 hardswish_62.tmp_0 depthwise_conv2d_42.tmp_0 0=128 1=5 11=5 2=1 12=1 3=1 13=1 4=2 14=2 15=2 16=2 5=1 6=3200 7=128
HardSwish        Div_100                  1 1 depthwise_conv2d_42.tmp_0 hardswish_64.tmp_0 0=1.666667e-01 1=5.000000e-01
Convolution      Conv_145                 1 1 hardswish_63.tmp_0 conv2d_289.tmp_0 0=128 1=1 11=1 2=1 12=1 3=1 13=1 4=0 14=0 15=0 16=0 5=1 6=16384
HardSwish        Div_101                  1 1 conv2d_289.tmp_0 hardswish_65.tmp_0 0=1.666667e-01 1=5.000000e-01
Convolution      Conv_146                 1 1 hardswish_64.tmp_0 conv2d_290.tmp_0 0=128 1=1 11=1 2=1 12=1 3=1 13=1 4=0 14=0 15=0 16=0 5=1 6=16384
HardSwish        Div_102                  1 1 conv2d_290.tmp_0 hardswish_66.tmp_0 0=1.666667e-01 1=5.000000e-01
Convolution      Conv_147                 1 1 hardswish_65.tmp_0 conv2d_291.tmp_0 0=80 1=1 11=1 2=1 12=1 3=1 13=1 4=0 14=0 15=0 16=0 5=1 6=10240
Convolution      Conv_148                 1 1 hardswish_66.tmp_0 conv2d_292.tmp_0 0=32 1=1 11=1 2=1 12=1 3=1 13=1 4=0 14=0 15=0 16=0 5=1 6=4096
Sigmoid          Sigmoid_1                1 1 conv2d_291.tmp_0 sigmoid_1.tmp_0
Reshape          Reshape_52               1 1 sigmoid_1.tmp_0 reshape2_22.tmp_0 0=-1 1=80
Permute          Transpose_12             1 1 reshape2_22.tmp_0 save_infer_model/scale_1.tmp_1 0=1
Reshape          Reshape_53               1 1 conv2d_292.tmp_0 reshape2_23.tmp_0 0=-1 1=32
Permute          Transpose_13             1 1 reshape2_23.tmp_0 save_infer_model/scale_5.tmp_1 0=1
ConvolutionDepthWise Conv_149                 1 1 hardswish_30.tmp_0_splitncnn_1 depthwise_conv2d_43.tmp_0 0=128 1=5 11=5 2=1 12=1 3=1 13=1 4=2 14=2 15=2 16=2 5=1 6=3200 7=128
HardSwish        Div_103                  1 1 depthwise_conv2d_43.tmp_0 hardswish_67.tmp_0 0=1.666667e-01 1=5.000000e-01
ConvolutionDepthWise Conv_150                 1 1 hardswish_30.tmp_0_splitncnn_0 depthwise_conv2d_44.tmp_0 0=128 1=5 11=5 2=1 12=1 3=1 13=1 4=2 14=2 15=2 16=2 5=1 6=3200 7=128
HardSwish        Div_104                  1 1 depthwise_conv2d_44.tmp_0 hardswish_68.tmp_0 0=1.666667e-01 1=5.000000e-01
Convolution      Conv_151                 1 1 hardswish_67.tmp_0 conv2d_293.tmp_0 0=128 1=1 11=1 2=1 12=1 3=1 13=1 4=0 14=0 15=0 16=0 5=1 6=16384
HardSwish        Div_105                  1 1 conv2d_293.tmp_0 hardswish_69.tmp_0 0=1.666667e-01 1=5.000000e-01
Convolution      Conv_152                 1 1 hardswish_68.tmp_0 conv2d_294.tmp_0 0=128 1=1 11=1 2=1 12=1 3=1 13=1 4=0 14=0 15=0 16=0 5=1 6=16384
HardSwish        Div_106                  1 1 conv2d_294.tmp_0 hardswish_70.tmp_0 0=1.666667e-01 1=5.000000e-01
ConvolutionDepthWise Conv_153                 1 1 hardswish_69.tmp_0 depthwise_conv2d_45.tmp_0 0=128 1=5 11=5 2=1 12=1 3=1 13=1 4=2 14=2 15=2 16=2 5=1 6=3200 7=128
HardSwish        Div_107                  1 1 depthwise_conv2d_45.tmp_0 hardswish_71.tmp_0 0=1.666667e-01 1=5.000000e-01
ConvolutionDepthWise Conv_154                 1 1 hardswish_70.tmp_0 depthwise_conv2d_46.tmp_0 0=128 1=5 11=5 2=1 12=1 3=1 13=1 4=2 14=2 15=2 16=2 5=1 6=3200 7=128
HardSwish        Div_108                  1 1 depthwise_conv2d_46.tmp_0 hardswish_72.tmp_0 0=1.666667e-01 1=5.000000e-01
Convolution      Conv_155                 1 1 hardswish_71.tmp_0 conv2d_295.tmp_0 0=128 1=1 11=1 2=1 12=1 3=1 13=1 4=0 14=0 15=0 16=0 5=1 6=16384
HardSwish        Div_109                  1 1 conv2d_295.tmp_0 hardswish_73.tmp_0 0=1.666667e-01 1=5.000000e-01
Convolution      Conv_156                 1 1 hardswish_72.tmp_0 conv2d_296.tmp_0 0=128 1=1 11=1 2=1 12=1 3=1 13=1 4=0 14=0 15=0 16=0 5=1 6=16384
HardSwish        Div_110                  1 1 conv2d_296.tmp_0 hardswish_74.tmp_0 0=1.666667e-01 1=5.000000e-01
ConvolutionDepthWise Conv_157                 1 1 hardswish_73.tmp_0 depthwise_conv2d_47.tmp_0 0=128 1=5 11=5 2=1 12=1 3=1 13=1 4=2 14=2 15=2 16=2 5=1 6=3200 7=128
HardSwish        Div_111                  1 1 depthwise_conv2d_47.tmp_0 hardswish_75.tmp_0 0=1.666667e-01 1=5.000000e-01
ConvolutionDepthWise Conv_158                 1 1 hardswish_74.tmp_0 depthwise_conv2d_48.tmp_0 0=128 1=5 11=5 2=1 12=1 3=1 13=1 4=2 14=2 15=2 16=2 5=1 6=3200 7=128
HardSwish        Div_112                  1 1 depthwise_conv2d_48.tmp_0 hardswish_76.tmp_0 0=1.666667e-01 1=5.000000e-01
Convolution      Conv_159                 1 1 hardswish_75.tmp_0 conv2d_297.tmp_0 0=128 1=1 11=1 2=1 12=1 3=1 13=1 4=0 14=0 15=0 16=0 5=1 6=16384
HardSwish        Div_113                  1 1 conv2d_297.tmp_0 hardswish_77.tmp_0 0=1.666667e-01 1=5.000000e-01
Convolution      Conv_160                 1 1 hardswish_76.tmp_0 conv2d_298.tmp_0 0=128 1=1 11=1 2=1 12=1 3=1 13=1 4=0 14=0 15=0 16=0 5=1 6=16384
HardSwish        Div_114                  1 1 conv2d_298.tmp_0 hardswish_78.tmp_0 0=1.666667e-01 1=5.000000e-01
ConvolutionDepthWise Conv_161                 1 1 hardswish_77.tmp_0 depthwise_conv2d_49.tmp_0 0=128 1=5 11=5 2=1 12=1 3=1 13=1 4=2 14=2 15=2 16=2 5=1 6=3200 7=128
HardSwish        Div_115                  1 1 depthwise_conv2d_49.tmp_0 hardswish_79.tmp_0 0=1.666667e-01 1=5.000000e-01
ConvolutionDepthWise Conv_162                 1 1 hardswish_78.tmp_0 depthwise_conv2d_50.tmp_0 0=128 1=5 11=5 2=1 12=1 3=1 13=1 4=2 14=2 15=2 16=2 5=1 6=3200 7=128
HardSwish        Div_116                  1 1 depthwise_conv2d_50.tmp_0 hardswish_80.tmp_0 0=1.666667e-01 1=5.000000e-01
Convolution      Conv_163                 1 1 hardswish_79.tmp_0 conv2d_299.tmp_0 0=128 1=1 11=1 2=1 12=1 3=1 13=1 4=0 14=0 15=0 16=0 5=1 6=16384
HardSwish        Div_117                  1 1 conv2d_299.tmp_0 hardswish_81.tmp_0 0=1.666667e-01 1=5.000000e-01
Convolution      Conv_164                 1 1 hardswish_80.tmp_0 conv2d_300.tmp_0 0=128 1=1 11=1 2=1 12=1 3=1 13=1 4=0 14=0 15=0 16=0 5=1 6=16384
HardSwish        Div_118                  1 1 conv2d_300.tmp_0 hardswish_82.tmp_0 0=1.666667e-01 1=5.000000e-01
Convolution      Conv_165                 1 1 hardswish_81.tmp_0 conv2d_301.tmp_0 0=80 1=1 11=1 2=1 12=1 3=1 13=1 4=0 14=0 15=0 16=0 5=1 6=10240
Convolution      Conv_166                 1 1 hardswish_82.tmp_0 conv2d_302.tmp_0 0=32 1=1 11=1 2=1 12=1 3=1 13=1 4=0 14=0 15=0 16=0 5=1 6=4096
Sigmoid          Sigmoid_2                1 1 conv2d_301.tmp_0 sigmoid_2.tmp_0
Reshape          Reshape_56               1 1 sigmoid_2.tmp_0 reshape2_24.tmp_0 0=-1 1=80
Permute          Transpose_14             1 1 reshape2_24.tmp_0 save_infer_model/scale_2.tmp_1 0=1
Reshape          Reshape_57               1 1 conv2d_302.tmp_0 reshape2_25.tmp_0 0=-1 1=32
Permute          Transpose_15             1 1 reshape2_25.tmp_0 save_infer_model/scale_6.tmp_1 0=1
ConvolutionDepthWise Conv_167                 1 1 tmp_0_splitncnn_1 depthwise_conv2d_51.tmp_0 0=128 1=5 11=5 2=1 12=1 3=1 13=1 4=2 14=2 15=2 16=2 5=1 6=3200 7=128
HardSwish        Div_119                  1 1 depthwise_conv2d_51.tmp_0 hardswish_83.tmp_0 0=1.666667e-01 1=5.000000e-01
ConvolutionDepthWise Conv_168                 1 1 tmp_0_splitncnn_0 depthwise_conv2d_52.tmp_0 0=128 1=5 11=5 2=1 12=1 3=1 13=1 4=2 14=2 15=2 16=2 5=1 6=3200 7=128
HardSwish        Div_120                  1 1 depthwise_conv2d_52.tmp_0 hardswish_84.tmp_0 0=1.666667e-01 1=5.000000e-01
Convolution      Conv_169                 1 1 hardswish_83.tmp_0 conv2d_303.tmp_0 0=128 1=1 11=1 2=1 12=1 3=1 13=1 4=0 14=0 15=0 16=0 5=1 6=16384
HardSwish        Div_121                  1 1 conv2d_303.tmp_0 hardswish_85.tmp_0 0=1.666667e-01 1=5.000000e-01
Convolution      Conv_170                 1 1 hardswish_84.tmp_0 conv2d_304.tmp_0 0=128 1=1 11=1 2=1 12=1 3=1 13=1 4=0 14=0 15=0 16=0 5=1 6=16384
HardSwish        Div_122                  1 1 conv2d_304.tmp_0 hardswish_86.tmp_0 0=1.666667e-01 1=5.000000e-01
ConvolutionDepthWise Conv_171                 1 1 hardswish_85.tmp_0 depthwise_conv2d_53.tmp_0 0=128 1=5 11=5 2=1 12=1 3=1 13=1 4=2 14=2 15=2 16=2 5=1 6=3200 7=128
HardSwish        Div_123                  1 1 depthwise_conv2d_53.tmp_0 hardswish_87.tmp_0 0=1.666667e-01 1=5.000000e-01
ConvolutionDepthWise Conv_172                 1 1 hardswish_86.tmp_0 depthwise_conv2d_54.tmp_0 0=128 1=5 11=5 2=1 12=1 3=1 13=1 4=2 14=2 15=2 16=2 5=1 6=3200 7=128
HardSwish        Div_124                  1 1 depthwise_conv2d_54.tmp_0 hardswish_88.tmp_0 0=1.666667e-01 1=5.000000e-01
Convolution      Conv_173                 1 1 hardswish_87.tmp_0 conv2d_305.tmp_0 0=128 1=1 11=1 2=1 12=1 3=1 13=1 4=0 14=0 15=0 16=0 5=1 6=16384
HardSwish        Div_125                  1 1 conv2d_305.tmp_0 hardswish_89.tmp_0 0=1.666667e-01 1=5.000000e-01
Convolution      Conv_174                 1 1 hardswish_88.tmp_0 conv2d_306.tmp_0 0=128 1=1 11=1 2=1 12=1 3=1 13=1 4=0 14=0 15=0 16=0 5=1 6=16384
HardSwish        Div_126                  1 1 conv2d_306.tmp_0 hardswish_90.tmp_0 0=1.666667e-01 1=5.000000e-01
ConvolutionDepthWise Conv_175                 1 1 hardswish_89.tmp_0 depthwise_conv2d_55.tmp_0 0=128 1=5 11=5 2=1 12=1 3=1 13=1 4=2 14=2 15=2 16=2 5=1 6=3200 7=128
HardSwish        Div_127                  1 1 depthwise_conv2d_55.tmp_0 hardswish_91.tmp_0 0=1.666667e-01 1=5.000000e-01
ConvolutionDepthWise Conv_176                 1 1 hardswish_90.tmp_0 depthwise_conv2d_56.tmp_0 0=128 1=5 11=5 2=1 12=1 3=1 13=1 4=2 14=2 15=2 16=2 5=1 6=3200 7=128
HardSwish        Div_128                  1 1 depthwise_conv2d_56.tmp_0 hardswish_92.tmp_0 0=1.666667e-01 1=5.000000e-01
Convolution      Conv_177                 1 1 hardswish_91.tmp_0 conv2d_307.tmp_0 0=128 1=1 11=1 2=1 12=1 3=1 13=1 4=0 14=0 15=0 16=0 5=1 6=16384
HardSwish        Div_129                  1 1 conv2d_307.tmp_0 hardswish_93.tmp_0 0=1.666667e-01 1=5.000000e-01
Convolution      Conv_178                 1 1 hardswish_92.tmp_0 conv2d_308.tmp_0 0=128 1=1 11=1 2=1 12=1 3=1 13=1 4=0 14=0 15=0 16=0 5=1 6=16384
HardSwish        Div_130                  1 1 conv2d_308.tmp_0 hardswish_94.tmp_0 0=1.666667e-01 1=5.000000e-01
ConvolutionDepthWise Conv_179                 1 1 hardswish_93.tmp_0 depthwise_conv2d_57.tmp_0 0=128 1=5 11=5 2=1 12=1 3=1 13=1 4=2 14=2 15=2 16=2 5=1 6=3200 7=128
HardSwish        Div_131                  1 1 depthwise_conv2d_57.tmp_0 hardswish_95.tmp_0 0=1.666667e-01 1=5.000000e-01
ConvolutionDepthWise Conv_180                 1 1 hardswish_94.tmp_0 depthwise_conv2d_58.tmp_0 0=128 1=5 11=5 2=1 12=1 3=1 13=1 4=2 14=2 15=2 16=2 5=1 6=3200 7=128
HardSwish        Div_132                  1 1 depthwise_conv2d_58.tmp_0 hardswish_96.tmp_0 0=1.666667e-01 1=5.000000e-01
Convolution      Conv_181                 1 1 hardswish_95.tmp_0 conv2d_309.tmp_0 0=128 1=1 11=1 2=1 12=1 3=1 13=1 4=0 14=0 15=0 16=0 5=1 6=16384
HardSwish        Div_133                  1 1 conv2d_309.tmp_0 hardswish_97.tmp_0 0=1.666667e-01 1=5.000000e-01
Convolution      Conv_182                 1 1 hardswish_96.tmp_0 conv2d_310.tmp_0 0=128 1=1 11=1 2=1 12=1 3=1 13=1 4=0 14=0 15=0 16=0 5=1 6=16384
HardSwish        Div_134                  1 1 conv2d_310.tmp_0 hardswish_98.tmp_0 0=1.666667e-01 1=5.000000e-01
Convolution      Conv_183                 1 1 hardswish_97.tmp_0 conv2d_311.tmp_0 0=80 1=1 11=1 2=1 12=1 3=1 13=1 4=0 14=0 15=0 16=0 5=1 6=10240
Convolution      Conv_184                 1 1 hardswish_98.tmp_0 conv2d_312.tmp_0 0=32 1=1 11=1 2=1 12=1 3=1 13=1 4=0 14=0 15=0 16=0 5=1 6=4096
Sigmoid          Sigmoid_3                1 1 conv2d_311.tmp_0 sigmoid_3.tmp_0
Reshape          Reshape_60               1 1 sigmoid_3.tmp_0 reshape2_26.tmp_0 0=-1 1=80
Permute          Transpose_16             1 1 reshape2_26.tmp_0 save_infer_model/scale_3.tmp_1 0=1
Reshape          Reshape_61               1 1 conv2d_312.tmp_0 reshape2_27.tmp_0 0=-1 1=32
Permute          Transpose_17             1 1 reshape2_27.tmp_0 output 0=1
