7767517
338 372
Input            data                     0 1 data -23330=4,3,416,416,3 0=416 1=416 2=3
Convolution      Conv_0                   1 1 data conv2d_135.tmp_0 0=16 1=3 11=3 2=1 12=1 3=2 13=2 4=1 14=1 15=1 16=1 5=1 6=432
HardSwish        Div_0                    1 1 conv2d_135.tmp_0 hardswish_0.tmp_0 0=1.666667e-01 1=5.000000e-01
Split            splitncnn_0              1 2 hardswish_0.tmp_0 hardswish_0.tmp_0_splitncnn_0 hardswish_0.tmp_0_splitncnn_1
Convolution      Conv_1                   1 1 hardswish_0.tmp_0_splitncnn_1 conv2d_136.tmp_0 0=16 1=1 11=1 2=1 12=1 3=1 13=1 4=0 14=0 15=0 16=0 5=1 6=256
ReLU             Relu_0                   1 1 conv2d_136.tmp_0 relu_0.tmp_0
ConvolutionDepthWise Conv_2                   1 1 relu_0.tmp_0 depthwise_conv2d_0.tmp_0 0=16 1=3 11=3 2=1 12=1 3=1 13=1 4=1 14=1 15=1 16=1 5=1 6=144 7=16
ReLU             Relu_1                   1 1 depthwise_conv2d_0.tmp_0 relu_1.tmp_0
Convolution      Conv_3                   1 1 relu_1.tmp_0 conv2d_137.tmp_0 0=16 1=1 11=1 2=1 12=1 3=1 13=1 4=0 14=0 15=0 16=0 5=1 6=256
BinaryOp         Add_1                    2 1 hardswish_0.tmp_0_splitncnn_0 conv2d_137.tmp_0 elementwise_add_0 0=0
Convolution      Conv_4                   1 1 elementwise_add_0 conv2d_138.tmp_0 0=64 1=1 11=1 2=1 12=1 3=1 13=1 4=0 14=0 15=0 16=0 5=1 6=1024
ReLU             Relu_2                   1 1 conv2d_138.tmp_0 relu_2.tmp_0
ConvolutionDepthWise Conv_5                   1 1 relu_2.tmp_0 depthwise_conv2d_1.tmp_0 0=64 1=3 11=3 2=1 12=1 3=2 13=2 4=1 14=1 15=1 16=1 5=1 6=576 7=64
ReLU             Relu_3                   1 1 depthwise_conv2d_1.tmp_0 relu_3.tmp_0
Convolution      Conv_6                   1 1 relu_3.tmp_0 conv2d_139.tmp_0 0=24 1=1 11=1 2=1 12=1 3=1 13=1 4=0 14=0 15=0 16=0 5=1 6=1536
Split            splitncnn_1              1 2 conv2d_139.tmp_0 conv2d_139.tmp_0_splitncnn_0 conv2d_139.tmp_0_splitncnn_1
Convolution      Conv_7                   1 1 conv2d_139.tmp_0_splitncnn_1 conv2d_140.tmp_0 0=72 1=1 11=1 2=1 12=1 3=1 13=1 4=0 14=0 15=0 16=0 5=1 6=1728
ReLU             Relu_4                   1 1 conv2d_140.tmp_0 relu_4.tmp_0
ConvolutionDepthWise Conv_8                   1 1 relu_4.tmp_0 depthwise_conv2d_2.tmp_0 0=72 1=3 11=3 2=1 12=1 3=1 13=1 4=1 14=1 15=1 16=1 5=1 6=648 7=72
ReLU             Relu_5                   1 1 depthwise_conv2d_2.tmp_0 relu_5.tmp_0
Convolution      Conv_9                   1 1 relu_5.tmp_0 conv2d_141.tmp_0 0=24 1=1 11=1 2=1 12=1 3=1 13=1 4=0 14=0 15=0 16=0 5=1 6=1728
BinaryOp         Add_2                    2 1 conv2d_139.tmp_0_splitncnn_0 conv2d_141.tmp_0 elementwise_add_1 0=0
Convolution      Conv_10                  1 1 elementwise_add_1 conv2d_142.tmp_0 0=72 1=1 11=1 2=1 12=1 3=1 13=1 4=0 14=0 15=0 16=0 5=1 6=1728
ReLU             Relu_6                   1 1 conv2d_142.tmp_0 relu_6.tmp_0
ConvolutionDepthWise Conv_11                  1 1 relu_6.tmp_0 depthwise_conv2d_3.tmp_0 0=72 1=5 11=5 2=1 12=1 3=2 13=2 4=2 14=2 15=2 16=2 5=1 6=1800 7=72
ReLU             Relu_7                   1 1 depthwise_conv2d_3.tmp_0 relu_7.tmp_0
Split            splitncnn_2              1 2 relu_7.tmp_0 relu_7.tmp_0_splitncnn_0 relu_7.tmp_0_splitncnn_1
Pooling          GlobalAveragePool_0      1 1 relu_7.tmp_0_splitncnn_1 pool2d_0.tmp_0 0=1 4=1
Convolution      Conv_12                  1 1 pool2d_0.tmp_0 conv2d_143.tmp_0 0=18 1=1 11=1 2=1 12=1 3=1 13=1 4=0 14=0 15=0 16=0 5=1 6=1296
ReLU             Relu_8                   1 1 conv2d_143.tmp_0 relu_8.tmp_0
Convolution      Conv_13                  1 1 relu_8.tmp_0 conv2d_144.tmp_0 0=72 1=1 11=1 2=1 12=1 3=1 13=1 4=0 14=0 15=0 16=0 5=1 6=1296
HardSigmoid      HardSigmoid_0            1 1 conv2d_144.tmp_0 hardsigmoid_0.tmp_0 0=2.000000e-01 1=5.000000e-01
BinaryOp         Mul_1                    2 1 relu_7.tmp_0_splitncnn_0 hardsigmoid_0.tmp_0 elementwise_mul_0 0=2
Convolution      Conv_14                  1 1 elementwise_mul_0 conv2d_145.tmp_0 0=40 1=1 11=1 2=1 12=1 3=1 13=1 4=0 14=0 15=0 16=0 5=1 6=2880
Split            splitncnn_3              1 2 conv2d_145.tmp_0 conv2d_145.tmp_0_splitncnn_0 conv2d_145.tmp_0_splitncnn_1
Convolution      Conv_15                  1 1 conv2d_145.tmp_0_splitncnn_1 conv2d_146.tmp_0 0=120 1=1 11=1 2=1 12=1 3=1 13=1 4=0 14=0 15=0 16=0 5=1 6=4800
ReLU             Relu_9                   1 1 conv2d_146.tmp_0 relu_9.tmp_0
ConvolutionDepthWise Conv_16                  1 1 relu_9.tmp_0 depthwise_conv2d_4.tmp_0 0=120 1=5 11=5 2=1 12=1 3=1 13=1 4=2 14=2 15=2 16=2 5=1 6=3000 7=120
ReLU             Relu_10                  1 1 depthwise_conv2d_4.tmp_0 relu_10.tmp_0
Split            splitncnn_4              1 2 relu_10.tmp_0 relu_10.tmp_0_splitncnn_0 relu_10.tmp_0_splitncnn_1
Pooling          GlobalAveragePool_1      1 1 relu_10.tmp_0_splitncnn_1 pool2d_1.tmp_0 0=1 4=1
Convolution      Conv_17                  1 1 pool2d_1.tmp_0 conv2d_147.tmp_0 0=30 1=1 11=1 2=1 12=1 3=1 13=1 4=0 14=0 15=0 16=0 5=1 6=3600
ReLU             Relu_11                  1 1 conv2d_147.tmp_0 relu_11.tmp_0
Convolution      Conv_18                  1 1 relu_11.tmp_0 conv2d_148.tmp_0 0=120 1=1 11=1 2=1 12=1 3=1 13=1 4=0 14=0 15=0 16=0 5=1 6=3600
HardSigmoid      HardSigmoid_1            1 1 conv2d_148.tmp_0 hardsigmoid_1.tmp_0 0=2.000000e-01 1=5.000000e-01
BinaryOp         Mul_2                    2 1 relu_10.tmp_0_splitncnn_0 hardsigmoid_1.tmp_0 elementwise_mul_1 0=2
Convolution      Conv_19                  1 1 elementwise_mul_1 conv2d_149.tmp_0 0=40 1=1 11=1 2=1 12=1 3=1 13=1 4=0 14=0 15=0 16=0 5=1 6=4800
BinaryOp         Add_7                    2 1 conv2d_145.tmp_0_splitncnn_0 conv2d_149.tmp_0 elementwise_add_2 0=0
Split            splitncnn_5              1 2 elementwise_add_2 elementwise_add_2_splitncnn_0 elementwise_add_2_splitncnn_1
Convolution      Conv_20                  1 1 elementwise_add_2_splitncnn_1 conv2d_150.tmp_0 0=120 1=1 11=1 2=1 12=1 3=1 13=1 4=0 14=0 15=0 16=0 5=1 6=4800
ReLU             Relu_12                  1 1 conv2d_150.tmp_0 relu_12.tmp_0
ConvolutionDepthWise Conv_21                  1 1 relu_12.tmp_0 depthwise_conv2d_5.tmp_0 0=120 1=5 11=5 2=1 12=1 3=1 13=1 4=2 14=2 15=2 16=2 5=1 6=3000 7=120
ReLU             Relu_13                  1 1 depthwise_conv2d_5.tmp_0 relu_13.tmp_0
Split            splitncnn_6              1 2 relu_13.tmp_0 relu_13.tmp_0_splitncnn_0 relu_13.tmp_0_splitncnn_1
Pooling          GlobalAveragePool_2      1 1 relu_13.tmp_0_splitncnn_1 pool2d_2.tmp_0 0=1 4=1
Convolution      Conv_22                  1 1 pool2d_2.tmp_0 conv2d_151.tmp_0 0=30 1=1 11=1 2=1 12=1 3=1 13=1 4=0 14=0 15=0 16=0 5=1 6=3600
ReLU             Relu_14                  1 1 conv2d_151.tmp_0 relu_14.tmp_0
Convolution      Conv_23                  1 1 relu_14.tmp_0 conv2d_152.tmp_0 0=120 1=1 11=1 2=1 12=1 3=1 13=1 4=0 14=0 15=0 16=0 5=1 6=3600
HardSigmoid      HardSigmoid_2            1 1 conv2d_152.tmp_0 hardsigmoid_2.tmp_0 0=2.000000e-01 1=5.000000e-01
BinaryOp         Mul_3                    2 1 relu_13.tmp_0_splitncnn_0 hardsigmoid_2.tmp_0 elementwise_mul_2 0=2
Convolution      Conv_24                  1 1 elementwise_mul_2 conv2d_153.tmp_0 0=40 1=1 11=1 2=1 12=1 3=1 13=1 4=0 14=0 15=0 16=0 5=1 6=4800
BinaryOp         Add_10                   2 1 elementwise_add_2_splitncnn_0 conv2d_153.tmp_0 elementwise_add_3 0=0
Split            splitncnn_7              1 2 elementwise_add_3 elementwise_add_3_splitncnn_0 elementwise_add_3_splitncnn_1
Convolution      Conv_25                  1 1 elementwise_add_3_splitncnn_1 conv2d_154.tmp_0 0=240 1=1 11=1 2=1 12=1 3=1 13=1 4=0 14=0 15=0 16=0 5=1 6=9600
HardSwish        Div_1                    1 1 conv2d_154.tmp_0 hardswish_1.tmp_0 0=1.666667e-01 1=5.000000e-01
ConvolutionDepthWise Conv_26                  1 1 hardswish_1.tmp_0 depthwise_conv2d_6.tmp_0 0=240 1=3 11=3 2=1 12=1 3=2 13=2 4=1 14=1 15=1 16=1 5=1 6=2160 7=240
HardSwish        Div_2                    1 1 depthwise_conv2d_6.tmp_0 hardswish_2.tmp_0 0=1.666667e-01 1=5.000000e-01
Convolution      Conv_27                  1 1 hardswish_2.tmp_0 conv2d_155.tmp_0 0=80 1=1 11=1 2=1 12=1 3=1 13=1 4=0 14=0 15=0 16=0 5=1 6=19200
Split            splitncnn_8              1 2 conv2d_155.tmp_0 conv2d_155.tmp_0_splitncnn_0 conv2d_155.tmp_0_splitncnn_1
Convolution      Conv_28                  1 1 conv2d_155.tmp_0_splitncnn_1 conv2d_156.tmp_0 0=200 1=1 11=1 2=1 12=1 3=1 13=1 4=0 14=0 15=0 16=0 5=1 6=16000
HardSwish        Div_3                    1 1 conv2d_156.tmp_0 hardswish_3.tmp_0 0=1.666667e-01 1=5.000000e-01
ConvolutionDepthWise Conv_29                  1 1 hardswish_3.tmp_0 depthwise_conv2d_7.tmp_0 0=200 1=3 11=3 2=1 12=1 3=1 13=1 4=1 14=1 15=1 16=1 5=1 6=1800 7=200
HardSwish        Div_4                    1 1 depthwise_conv2d_7.tmp_0 hardswish_4.tmp_0 0=1.666667e-01 1=5.000000e-01
Convolution      Conv_30                  1 1 hardswish_4.tmp_0 conv2d_157.tmp_0 0=80 1=1 11=1 2=1 12=1 3=1 13=1 4=0 14=0 15=0 16=0 5=1 6=16000
BinaryOp         Add_15                   2 1 conv2d_155.tmp_0_splitncnn_0 conv2d_157.tmp_0 elementwise_add_4 0=0
Split            splitncnn_9              1 2 elementwise_add_4 elementwise_add_4_splitncnn_0 elementwise_add_4_splitncnn_1
Convolution      Conv_31                  1 1 elementwise_add_4_splitncnn_1 conv2d_158.tmp_0 0=184 1=1 11=1 2=1 12=1 3=1 13=1 4=0 14=0 15=0 16=0 5=1 6=14720
HardSwish        Div_5                    1 1 conv2d_158.tmp_0 hardswish_5.tmp_0 0=1.666667e-01 1=5.000000e-01
ConvolutionDepthWise Conv_32                  1 1 hardswish_5.tmp_0 depthwise_conv2d_8.tmp_0 0=184 1=3 11=3 2=1 12=1 3=1 13=1 4=1 14=1 15=1 16=1 5=1 6=1656 7=184
HardSwish        Div_6                    1 1 depthwise_conv2d_8.tmp_0 hardswish_6.tmp_0 0=1.666667e-01 1=5.000000e-01
Convolution      Conv_33                  1 1 hardswish_6.tmp_0 conv2d_159.tmp_0 0=80 1=1 11=1 2=1 12=1 3=1 13=1 4=0 14=0 15=0 16=0 5=1 6=14720
BinaryOp         Add_18                   2 1 elementwise_add_4_splitncnn_0 conv2d_159.tmp_0 elementwise_add_5 0=0
Split            splitncnn_10             1 2 elementwise_add_5 elementwise_add_5_splitncnn_0 elementwise_add_5_splitncnn_1
Convolution      Conv_34                  1 1 elementwise_add_5_splitncnn_1 conv2d_160.tmp_0 0=184 1=1 11=1 2=1 12=1 3=1 13=1 4=0 14=0 15=0 16=0 5=1 6=14720
HardSwish        Div_7                    1 1 conv2d_160.tmp_0 hardswish_7.tmp_0 0=1.666667e-01 1=5.000000e-01
ConvolutionDepthWise Conv_35                  1 1 hardswish_7.tmp_0 depthwise_conv2d_9.tmp_0 0=184 1=3 11=3 2=1 12=1 3=1 13=1 4=1 14=1 15=1 16=1 5=1 6=1656 7=184
HardSwish        Div_8                    1 1 depthwise_conv2d_9.tmp_0 hardswish_8.tmp_0 0=1.666667e-01 1=5.000000e-01
Convolution      Conv_36                  1 1 hardswish_8.tmp_0 conv2d_161.tmp_0 0=80 1=1 11=1 2=1 12=1 3=1 13=1 4=0 14=0 15=0 16=0 5=1 6=14720
BinaryOp         Add_21                   2 1 elementwise_add_5_splitncnn_0 conv2d_161.tmp_0 elementwise_add_6 0=0
Convolution      Conv_37                  1 1 elementwise_add_6 conv2d_162.tmp_0 0=480 1=1 11=1 2=1 12=1 3=1 13=1 4=0 14=0 15=0 16=0 5=1 6=38400
HardSwish        Div_9                    1 1 conv2d_162.tmp_0 hardswish_9.tmp_0 0=1.666667e-01 1=5.000000e-01
ConvolutionDepthWise Conv_38                  1 1 hardswish_9.tmp_0 depthwise_conv2d_10.tmp_0 0=480 1=3 11=3 2=1 12=1 3=1 13=1 4=1 14=1 15=1 16=1 5=1 6=4320 7=480
HardSwish        Div_10                   1 1 depthwise_conv2d_10.tmp_0 hardswish_10.tmp_0 0=1.666667e-01 1=5.000000e-01
Split            splitncnn_11             1 2 hardswish_10.tmp_0 hardswish_10.tmp_0_splitncnn_0 hardswish_10.tmp_0_splitncnn_1
Pooling          GlobalAveragePool_3      1 1 hardswish_10.tmp_0_splitncnn_1 pool2d_3.tmp_0 0=1 4=1
Convolution      Conv_39                  1 1 pool2d_3.tmp_0 conv2d_163.tmp_0 0=120 1=1 11=1 2=1 12=1 3=1 13=1 4=0 14=0 15=0 16=0 5=1 6=57600
ReLU             Relu_15                  1 1 conv2d_163.tmp_0 relu_15.tmp_0
Convolution      Conv_40                  1 1 relu_15.tmp_0 conv2d_164.tmp_0 0=480 1=1 11=1 2=1 12=1 3=1 13=1 4=0 14=0 15=0 16=0 5=1 6=57600
HardSigmoid      HardSigmoid_3            1 1 conv2d_164.tmp_0 hardsigmoid_3.tmp_0 0=2.000000e-01 1=5.000000e-01
BinaryOp         Mul_14                   2 1 hardswish_10.tmp_0_splitncnn_0 hardsigmoid_3.tmp_0 elementwise_mul_3 0=2
Convolution      Conv_41                  1 1 elementwise_mul_3 conv2d_165.tmp_0 0=112 1=1 11=1 2=1 12=1 3=1 13=1 4=0 14=0 15=0 16=0 5=1 6=53760
Split            splitncnn_12             1 2 conv2d_165.tmp_0 conv2d_165.tmp_0_splitncnn_0 conv2d_165.tmp_0_splitncnn_1
Convolution      Conv_42                  1 1 conv2d_165.tmp_0_splitncnn_1 conv2d_166.tmp_0 0=672 1=1 11=1 2=1 12=1 3=1 13=1 4=0 14=0 15=0 16=0 5=1 6=75264
HardSwish        Div_11                   1 1 conv2d_166.tmp_0 hardswish_11.tmp_0 0=1.666667e-01 1=5.000000e-01
ConvolutionDepthWise Conv_43                  1 1 hardswish_11.tmp_0 depthwise_conv2d_11.tmp_0 0=672 1=3 11=3 2=1 12=1 3=1 13=1 4=1 14=1 15=1 16=1 5=1 6=6048 7=672
HardSwish        Div_12                   1 1 depthwise_conv2d_11.tmp_0 hardswish_12.tmp_0 0=1.666667e-01 1=5.000000e-01
Split            splitncnn_13             1 2 hardswish_12.tmp_0 hardswish_12.tmp_0_splitncnn_0 hardswish_12.tmp_0_splitncnn_1
Pooling          GlobalAveragePool_4      1 1 hardswish_12.tmp_0_splitncnn_1 pool2d_4.tmp_0 0=1 4=1
Convolution      Conv_44                  1 1 pool2d_4.tmp_0 conv2d_167.tmp_0 0=168 1=1 11=1 2=1 12=1 3=1 13=1 4=0 14=0 15=0 16=0 5=1 6=112896
ReLU             Relu_16                  1 1 conv2d_167.tmp_0 relu_16.tmp_0
Convolution      Conv_45                  1 1 relu_16.tmp_0 conv2d_168.tmp_0 0=672 1=1 11=1 2=1 12=1 3=1 13=1 4=0 14=0 15=0 16=0 5=1 6=112896
HardSigmoid      HardSigmoid_4            1 1 conv2d_168.tmp_0 hardsigmoid_4.tmp_0 0=2.000000e-01 1=5.000000e-01
BinaryOp         Mul_17                   2 1 hardswish_12.tmp_0_splitncnn_0 hardsigmoid_4.tmp_0 elementwise_mul_4 0=2
Convolution      Conv_46                  1 1 elementwise_mul_4 conv2d_169.tmp_0 0=112 1=1 11=1 2=1 12=1 3=1 13=1 4=0 14=0 15=0 16=0 5=1 6=75264
BinaryOp         Add_30                   2 1 conv2d_165.tmp_0_splitncnn_0 conv2d_169.tmp_0 elementwise_add_7 0=0
Split            splitncnn_14             1 2 elementwise_add_7 elementwise_add_7_splitncnn_0 elementwise_add_7_splitncnn_1
Convolution      Conv_47                  1 1 elementwise_add_7_splitncnn_1 conv2d_170.tmp_0 0=672 1=1 11=1 2=1 12=1 3=1 13=1 4=0 14=0 15=0 16=0 5=1 6=75264
HardSwish        Div_13                   1 1 conv2d_170.tmp_0 hardswish_13.tmp_0 0=1.666667e-01 1=5.000000e-01
ConvolutionDepthWise Conv_48                  1 1 hardswish_13.tmp_0 depthwise_conv2d_12.tmp_0 0=672 1=5 11=5 2=1 12=1 3=2 13=2 4=2 14=2 15=2 16=2 5=1 6=16800 7=672
HardSwish        Div_14                   1 1 depthwise_conv2d_12.tmp_0 hardswish_14.tmp_0 0=1.666667e-01 1=5.000000e-01
Split            splitncnn_15             1 2 hardswish_14.tmp_0 hardswish_14.tmp_0_splitncnn_0 hardswish_14.tmp_0_splitncnn_1
Pooling          GlobalAveragePool_5      1 1 hardswish_14.tmp_0_splitncnn_1 pool2d_5.tmp_0 0=1 4=1
Convolution      Conv_49                  1 1 pool2d_5.tmp_0 conv2d_171.tmp_0 0=168 1=1 11=1 2=1 12=1 3=1 13=1 4=0 14=0 15=0 16=0 5=1 6=112896
ReLU             Relu_17                  1 1 conv2d_171.tmp_0 relu_17.tmp_0
Convolution      Conv_50                  1 1 relu_17.tmp_0 conv2d_172.tmp_0 0=672 1=1 11=1 2=1 12=1 3=1 13=1 4=0 14=0 15=0 16=0 5=1 6=112896
HardSigmoid      HardSigmoid_5            1 1 conv2d_172.tmp_0 hardsigmoid_5.tmp_0 0=2.000000e-01 1=5.000000e-01
BinaryOp         Mul_20                   2 1 hardswish_14.tmp_0_splitncnn_0 hardsigmoid_5.tmp_0 elementwise_mul_5 0=2
Convolution      Conv_51                  1 1 elementwise_mul_5 conv2d_173.tmp_0 0=160 1=1 11=1 2=1 12=1 3=1 13=1 4=0 14=0 15=0 16=0 5=1 6=107520
Split            splitncnn_16             1 2 conv2d_173.tmp_0 conv2d_173.tmp_0_splitncnn_0 conv2d_173.tmp_0_splitncnn_1
Convolution      Conv_52                  1 1 conv2d_173.tmp_0_splitncnn_1 conv2d_174.tmp_0 0=960 1=1 11=1 2=1 12=1 3=1 13=1 4=0 14=0 15=0 16=0 5=1 6=153600
HardSwish        Div_15                   1 1 conv2d_174.tmp_0 hardswish_15.tmp_0 0=1.666667e-01 1=5.000000e-01
ConvolutionDepthWise Conv_53                  1 1 hardswish_15.tmp_0 depthwise_conv2d_13.tmp_0 0=960 1=5 11=5 2=1 12=1 3=1 13=1 4=2 14=2 15=2 16=2 5=1 6=24000 7=960
HardSwish        Div_16                   1 1 depthwise_conv2d_13.tmp_0 hardswish_16.tmp_0 0=1.666667e-01 1=5.000000e-01
Split            splitncnn_17             1 2 hardswish_16.tmp_0 hardswish_16.tmp_0_splitncnn_0 hardswish_16.tmp_0_splitncnn_1
Pooling          GlobalAveragePool_6      1 1 hardswish_16.tmp_0_splitncnn_1 pool2d_6.tmp_0 0=1 4=1
Convolution      Conv_54                  1 1 pool2d_6.tmp_0 conv2d_175.tmp_0 0=240 1=1 11=1 2=1 12=1 3=1 13=1 4=0 14=0 15=0 16=0 5=1 6=230400
ReLU             Relu_18                  1 1 conv2d_175.tmp_0 relu_18.tmp_0
Convolution      Conv_55                  1 1 relu_18.tmp_0 conv2d_176.tmp_0 0=960 1=1 11=1 2=1 12=1 3=1 13=1 4=0 14=0 15=0 16=0 5=1 6=230400
HardSigmoid      HardSigmoid_6            1 1 conv2d_176.tmp_0 hardsigmoid_6.tmp_0 0=2.000000e-01 1=5.000000e-01
BinaryOp         Mul_23                   2 1 hardswish_16.tmp_0_splitncnn_0 hardsigmoid_6.tmp_0 elementwise_mul_6 0=2
Convolution      Conv_56                  1 1 elementwise_mul_6 conv2d_177.tmp_0 0=160 1=1 11=1 2=1 12=1 3=1 13=1 4=0 14=0 15=0 16=0 5=1 6=153600
BinaryOp         Add_39                   2 1 conv2d_173.tmp_0_splitncnn_0 conv2d_177.tmp_0 elementwise_add_8 0=0
Split            splitncnn_18             1 2 elementwise_add_8 elementwise_add_8_splitncnn_0 elementwise_add_8_splitncnn_1
Convolution      Conv_57                  1 1 elementwise_add_8_splitncnn_1 conv2d_178.tmp_0 0=960 1=1 11=1 2=1 12=1 3=1 13=1 4=0 14=0 15=0 16=0 5=1 6=153600
HardSwish        Div_17                   1 1 conv2d_178.tmp_0 hardswish_17.tmp_0 0=1.666667e-01 1=5.000000e-01
ConvolutionDepthWise Conv_58                  1 1 hardswish_17.tmp_0 depthwise_conv2d_14.tmp_0 0=960 1=5 11=5 2=1 12=1 3=1 13=1 4=2 14=2 15=2 16=2 5=1 6=24000 7=960
HardSwish        Div_18                   1 1 depthwise_conv2d_14.tmp_0 hardswish_18.tmp_0 0=1.666667e-01 1=5.000000e-01
Split            splitncnn_19             1 2 hardswish_18.tmp_0 hardswish_18.tmp_0_splitncnn_0 hardswish_18.tmp_0_splitncnn_1
Pooling          GlobalAveragePool_7      1 1 hardswish_18.tmp_0_splitncnn_1 pool2d_7.tmp_0 0=1 4=1
Convolution      Conv_59                  1 1 pool2d_7.tmp_0 conv2d_179.tmp_0 0=240 1=1 11=1 2=1 12=1 3=1 13=1 4=0 14=0 15=0 16=0 5=1 6=230400
ReLU             Relu_19                  1 1 conv2d_179.tmp_0 relu_19.tmp_0
Convolution      Conv_60                  1 1 relu_19.tmp_0 conv2d_180.tmp_0 0=960 1=1 11=1 2=1 12=1 3=1 13=1 4=0 14=0 15=0 16=0 5=1 6=230400
HardSigmoid      HardSigmoid_7            1 1 conv2d_180.tmp_0 hardsigmoid_7.tmp_0 0=2.000000e-01 1=5.000000e-01
BinaryOp         Mul_26                   2 1 hardswish_18.tmp_0_splitncnn_0 hardsigmoid_7.tmp_0 elementwise_mul_7 0=2
Convolution      Conv_61                  1 1 elementwise_mul_7 conv2d_181.tmp_0 0=160 1=1 11=1 2=1 12=1 3=1 13=1 4=0 14=0 15=0 16=0 5=1 6=153600
BinaryOp         Add_44                   2 1 elementwise_add_8_splitncnn_0 conv2d_181.tmp_0 elementwise_add_9 0=0
Convolution      Conv_62                  1 1 elementwise_add_3_splitncnn_0 conv2d_182.tmp_0 0=128 1=1 11=1 2=1 12=1 3=1 13=1 4=0 14=0 15=0 16=0 5=1 6=5120
HardSwish        Div_19                   1 1 conv2d_182.tmp_0 hardswish_19.tmp_0 0=1.666667e-01 1=5.000000e-01
Convolution      Conv_63                  1 1 elementwise_add_7_splitncnn_0 conv2d_183.tmp_0 0=128 1=1 11=1 2=1 12=1 3=1 13=1 4=0 14=0 15=0 16=0 5=1 6=14336
HardSwish        Div_20                   1 1 conv2d_183.tmp_0 hardswish_20.tmp_0 0=1.666667e-01 1=5.000000e-01
Convolution      Conv_64                  1 1 elementwise_add_9 conv2d_184.tmp_0 0=128 1=1 11=1 2=1 12=1 3=1 13=1 4=0 14=0 15=0 16=0 5=1 6=20480
HardSwish        Div_21                   1 1 conv2d_184.tmp_0 hardswish_21.tmp_0 0=1.666667e-01 1=5.000000e-01
Split            splitncnn_20             1 3 hardswish_21.tmp_0 hardswish_21.tmp_0_splitncnn_0 hardswish_21.tmp_0_splitncnn_1 hardswish_21.tmp_0_splitncnn_2
Interp           Resize_0                 1 1 hardswish_21.tmp_0_splitncnn_2 nearest_interp_v2_0.tmp_0 0=1 1=2.000000e+00 2=2.000000e+00 3=0 4=0 6=0
Concat           Concat_0                 2 1 nearest_interp_v2_0.tmp_0 hardswish_20.tmp_0 concat_0.tmp_0 0=0
Split            splitncnn_21             1 2 concat_0.tmp_0 concat_0.tmp_0_splitncnn_0 concat_0.tmp_0_splitncnn_1
Convolution      Conv_65                  1 1 concat_0.tmp_0_splitncnn_1 conv2d_185.tmp_0 0=64 1=1 11=1 2=1 12=1 3=1 13=1 4=0 14=0 15=0 16=0 5=1 6=16384
HardSwish        Div_22                   1 1 conv2d_185.tmp_0 hardswish_22.tmp_0 0=1.666667e-01 1=5.000000e-01
Convolution      Conv_66                  1 1 concat_0.tmp_0_splitncnn_0 conv2d_186.tmp_0 0=64 1=1 11=1 2=1 12=1 3=1 13=1 4=0 14=0 15=0 16=0 5=1 6=16384
HardSwish        Div_23                   1 1 conv2d_186.tmp_0 hardswish_23.tmp_0 0=1.666667e-01 1=5.000000e-01
Convolution      Conv_67                  1 1 hardswish_23.tmp_0 conv2d_187.tmp_0 0=64 1=1 11=1 2=1 12=1 3=1 13=1 4=0 14=0 15=0 16=0 5=1 6=4096
HardSwish        Div_24                   1 1 conv2d_187.tmp_0 hardswish_24.tmp_0 0=1.666667e-01 1=5.000000e-01
ConvolutionDepthWise Conv_68                  1 1 hardswish_24.tmp_0 depthwise_conv2d_15.tmp_0 0=64 1=5 11=5 2=1 12=1 3=1 13=1 4=2 14=2 15=2 16=2 5=1 6=1600 7=64
HardSwish        Div_25                   1 1 depthwise_conv2d_15.tmp_0 hardswish_25.tmp_0 0=1.666667e-01 1=5.000000e-01
Convolution      Conv_69                  1 1 hardswish_25.tmp_0 conv2d_188.tmp_0 0=64 1=1 11=1 2=1 12=1 3=1 13=1 4=0 14=0 15=0 16=0 5=1 6=4096
HardSwish        Div_26                   1 1 conv2d_188.tmp_0 hardswish_26.tmp_0 0=1.666667e-01 1=5.000000e-01
Concat           Concat_1                 2 1 hardswish_26.tmp_0 hardswish_22.tmp_0 concat_1.tmp_0 0=0
Convolution      Conv_70                  1 1 concat_1.tmp_0 conv2d_189.tmp_0 0=128 1=1 11=1 2=1 12=1 3=1 13=1 4=0 14=0 15=0 16=0 5=1 6=16384
HardSwish        Div_27                   1 1 conv2d_189.tmp_0 hardswish_27.tmp_0 0=1.666667e-01 1=5.000000e-01
Split            splitncnn_22             1 2 hardswish_27.tmp_0 hardswish_27.tmp_0_splitncnn_0 hardswish_27.tmp_0_splitncnn_1
Interp           Resize_1                 1 1 hardswish_27.tmp_0_splitncnn_1 nearest_interp_v2_1.tmp_0 0=1 1=2.000000e+00 2=2.000000e+00 3=0 4=0 6=0
Concat           Concat_2                 2 1 nearest_interp_v2_1.tmp_0 hardswish_19.tmp_0 concat_2.tmp_0 0=0
Split            splitncnn_23             1 2 concat_2.tmp_0 concat_2.tmp_0_splitncnn_0 concat_2.tmp_0_splitncnn_1
Convolution      Conv_71                  1 1 concat_2.tmp_0_splitncnn_1 conv2d_190.tmp_0 0=64 1=1 11=1 2=1 12=1 3=1 13=1 4=0 14=0 15=0 16=0 5=1 6=16384
HardSwish        Div_28                   1 1 conv2d_190.tmp_0 hardswish_28.tmp_0 0=1.666667e-01 1=5.000000e-01
Convolution      Conv_72                  1 1 concat_2.tmp_0_splitncnn_0 conv2d_191.tmp_0 0=64 1=1 11=1 2=1 12=1 3=1 13=1 4=0 14=0 15=0 16=0 5=1 6=16384
HardSwish        Div_29                   1 1 conv2d_191.tmp_0 hardswish_29.tmp_0 0=1.666667e-01 1=5.000000e-01
Convolution      Conv_73                  1 1 hardswish_29.tmp_0 conv2d_192.tmp_0 0=64 1=1 11=1 2=1 12=1 3=1 13=1 4=0 14=0 15=0 16=0 5=1 6=4096
HardSwish        Div_30                   1 1 conv2d_192.tmp_0 hardswish_30.tmp_0 0=1.666667e-01 1=5.000000e-01
ConvolutionDepthWise Conv_74                  1 1 hardswish_30.tmp_0 depthwise_conv2d_16.tmp_0 0=64 1=5 11=5 2=1 12=1 3=1 13=1 4=2 14=2 15=2 16=2 5=1 6=1600 7=64
HardSwish        Div_31                   1 1 depthwise_conv2d_16.tmp_0 hardswish_31.tmp_0 0=1.666667e-01 1=5.000000e-01
Convolution      Conv_75                  1 1 hardswish_31.tmp_0 conv2d_193.tmp_0 0=64 1=1 11=1 2=1 12=1 3=1 13=1 4=0 14=0 15=0 16=0 5=1 6=4096
HardSwish        Div_32                   1 1 conv2d_193.tmp_0 hardswish_32.tmp_0 0=1.666667e-01 1=5.000000e-01
Concat           Concat_3                 2 1 hardswish_32.tmp_0 hardswish_28.tmp_0 concat_3.tmp_0 0=0
Convolution      Conv_76                  1 1 concat_3.tmp_0 conv2d_194.tmp_0 0=128 1=1 11=1 2=1 12=1 3=1 13=1 4=0 14=0 15=0 16=0 5=1 6=16384
HardSwish        Div_33                   1 1 conv2d_194.tmp_0 hardswish_33.tmp_0 0=1.666667e-01 1=5.000000e-01
Split            splitncnn_24             1 2 hardswish_33.tmp_0 hardswish_33.tmp_0_splitncnn_0 hardswish_33.tmp_0_splitncnn_1
ConvolutionDepthWise Conv_77                  1 1 hardswish_33.tmp_0_splitncnn_1 depthwise_conv2d_17.tmp_0 0=128 1=5 11=5 2=1 12=1 3=2 13=2 4=2 14=2 15=2 16=2 5=1 6=3200 7=128
HardSwish        Div_34                   1 1 depthwise_conv2d_17.tmp_0 hardswish_34.tmp_0 0=1.666667e-01 1=5.000000e-01
Convolution      Conv_78                  1 1 hardswish_34.tmp_0 conv2d_195.tmp_0 0=128 1=1 11=1 2=1 12=1 3=1 13=1 4=0 14=0 15=0 16=0 5=1 6=16384
HardSwish        Div_35                   1 1 conv2d_195.tmp_0 hardswish_35.tmp_0 0=1.666667e-01 1=5.000000e-01
Concat           Concat_4                 2 1 hardswish_35.tmp_0 hardswish_27.tmp_0_splitncnn_0 concat_4.tmp_0 0=0
Split            splitncnn_25             1 2 concat_4.tmp_0 concat_4.tmp_0_splitncnn_0 concat_4.tmp_0_splitncnn_1
Convolution      Conv_79                  1 1 concat_4.tmp_0_splitncnn_1 conv2d_196.tmp_0 0=64 1=1 11=1 2=1 12=1 3=1 13=1 4=0 14=0 15=0 16=0 5=1 6=16384
HardSwish        Div_36                   1 1 conv2d_196.tmp_0 hardswish_36.tmp_0 0=1.666667e-01 1=5.000000e-01
Convolution      Conv_80                  1 1 concat_4.tmp_0_splitncnn_0 conv2d_197.tmp_0 0=64 1=1 11=1 2=1 12=1 3=1 13=1 4=0 14=0 15=0 16=0 5=1 6=16384
HardSwish        Div_37                   1 1 conv2d_197.tmp_0 hardswish_37.tmp_0 0=1.666667e-01 1=5.000000e-01
Convolution      Conv_81                  1 1 hardswish_37.tmp_0 conv2d_198.tmp_0 0=64 1=1 11=1 2=1 12=1 3=1 13=1 4=0 14=0 15=0 16=0 5=1 6=4096
HardSwish        Div_38                   1 1 conv2d_198.tmp_0 hardswish_38.tmp_0 0=1.666667e-01 1=5.000000e-01
ConvolutionDepthWise Conv_82                  1 1 hardswish_38.tmp_0 depthwise_conv2d_18.tmp_0 0=64 1=5 11=5 2=1 12=1 3=1 13=1 4=2 14=2 15=2 16=2 5=1 6=1600 7=64
HardSwish        Div_39                   1 1 depthwise_conv2d_18.tmp_0 hardswish_39.tmp_0 0=1.666667e-01 1=5.000000e-01
Convolution      Conv_83                  1 1 hardswish_39.tmp_0 conv2d_199.tmp_0 0=64 1=1 11=1 2=1 12=1 3=1 13=1 4=0 14=0 15=0 16=0 5=1 6=4096
HardSwish        Div_40                   1 1 conv2d_199.tmp_0 hardswish_40.tmp_0 0=1.666667e-01 1=5.000000e-01
Concat           Concat_5                 2 1 hardswish_40.tmp_0 hardswish_36.tmp_0 concat_5.tmp_0 0=0
Convolution      Conv_84                  1 1 concat_5.tmp_0 conv2d_200.tmp_0 0=128 1=1 11=1 2=1 12=1 3=1 13=1 4=0 14=0 15=0 16=0 5=1 6=16384
HardSwish        Div_41                   1 1 conv2d_200.tmp_0 hardswish_41.tmp_0 0=1.666667e-01 1=5.000000e-01
Split            splitncnn_26             1 2 hardswish_41.tmp_0 hardswish_41.tmp_0_splitncnn_0 hardswish_41.tmp_0_splitncnn_1
ConvolutionDepthWise Conv_85                  1 1 hardswish_41.tmp_0_splitncnn_1 depthwise_conv2d_19.tmp_0 0=128 1=5 11=5 2=1 12=1 3=2 13=2 4=2 14=2 15=2 16=2 5=1 6=3200 7=128
HardSwish        Div_42                   1 1 depthwise_conv2d_19.tmp_0 hardswish_42.tmp_0 0=1.666667e-01 1=5.000000e-01
Convolution      Conv_86                  1 1 hardswish_42.tmp_0 conv2d_201.tmp_0 0=128 1=1 11=1 2=1 12=1 3=1 13=1 4=0 14=0 15=0 16=0 5=1 6=16384
HardSwish        Div_43                   1 1 conv2d_201.tmp_0 hardswish_43.tmp_0 0=1.666667e-01 1=5.000000e-01
Concat           Concat_6                 2 1 hardswish_43.tmp_0 hardswish_21.tmp_0_splitncnn_1 concat_6.tmp_0 0=0
Split            splitncnn_27             1 2 concat_6.tmp_0 concat_6.tmp_0_splitncnn_0 concat_6.tmp_0_splitncnn_1
Convolution      Conv_87                  1 1 concat_6.tmp_0_splitncnn_1 conv2d_202.tmp_0 0=64 1=1 11=1 2=1 12=1 3=1 13=1 4=0 14=0 15=0 16=0 5=1 6=16384
HardSwish        Div_44                   1 1 conv2d_202.tmp_0 hardswish_44.tmp_0 0=1.666667e-01 1=5.000000e-01
Convolution      Conv_88                  1 1 concat_6.tmp_0_splitncnn_0 conv2d_203.tmp_0 0=64 1=1 11=1 2=1 12=1 3=1 13=1 4=0 14=0 15=0 16=0 5=1 6=16384
HardSwish        Div_45                   1 1 conv2d_203.tmp_0 hardswish_45.tmp_0 0=1.666667e-01 1=5.000000e-01
Convolution      Conv_89                  1 1 hardswish_45.tmp_0 conv2d_204.tmp_0 0=64 1=1 11=1 2=1 12=1 3=1 13=1 4=0 14=0 15=0 16=0 5=1 6=4096
HardSwish        Div_46                   1 1 conv2d_204.tmp_0 hardswish_46.tmp_0 0=1.666667e-01 1=5.000000e-01
ConvolutionDepthWise Conv_90                  1 1 hardswish_46.tmp_0 depthwise_conv2d_20.tmp_0 0=64 1=5 11=5 2=1 12=1 3=1 13=1 4=2 14=2 15=2 16=2 5=1 6=1600 7=64
HardSwish        Div_47                   1 1 depthwise_conv2d_20.tmp_0 hardswish_47.tmp_0 0=1.666667e-01 1=5.000000e-01
Convolution      Conv_91                  1 1 hardswish_47.tmp_0 conv2d_205.tmp_0 0=64 1=1 11=1 2=1 12=1 3=1 13=1 4=0 14=0 15=0 16=0 5=1 6=4096
HardSwish        Div_48                   1 1 conv2d_205.tmp_0 hardswish_48.tmp_0 0=1.666667e-01 1=5.000000e-01
Concat           Concat_7                 2 1 hardswish_48.tmp_0 hardswish_44.tmp_0 concat_7.tmp_0 0=0
Convolution      Conv_92                  1 1 concat_7.tmp_0 conv2d_206.tmp_0 0=128 1=1 11=1 2=1 12=1 3=1 13=1 4=0 14=0 15=0 16=0 5=1 6=16384
HardSwish        Div_49                   1 1 conv2d_206.tmp_0 hardswish_49.tmp_0 0=1.666667e-01 1=5.000000e-01
Split            splitncnn_28             1 2 hardswish_49.tmp_0 hardswish_49.tmp_0_splitncnn_0 hardswish_49.tmp_0_splitncnn_1
ConvolutionDepthWise Conv_93                  1 1 hardswish_21.tmp_0_splitncnn_0 depthwise_conv2d_21.tmp_0 0=128 1=5 11=5 2=1 12=1 3=2 13=2 4=2 14=2 15=2 16=2 5=1 6=3200 7=128
HardSwish        Div_50                   1 1 depthwise_conv2d_21.tmp_0 hardswish_50.tmp_0 0=1.666667e-01 1=5.000000e-01
Convolution      Conv_94                  1 1 hardswish_50.tmp_0 conv2d_207.tmp_0 0=128 1=1 11=1 2=1 12=1 3=1 13=1 4=0 14=0 15=0 16=0 5=1 6=16384
HardSwish        Div_51                   1 1 conv2d_207.tmp_0 hardswish_51.tmp_0 0=1.666667e-01 1=5.000000e-01
ConvolutionDepthWise Conv_95                  1 1 hardswish_49.tmp_0_splitncnn_1 depthwise_conv2d_22.tmp_0 0=128 1=5 11=5 2=1 12=1 3=2 13=2 4=2 14=2 15=2 16=2 5=1 6=3200 7=128
HardSwish        Div_52                   1 1 depthwise_conv2d_22.tmp_0 hardswish_52.tmp_0 0=1.666667e-01 1=5.000000e-01
Convolution      Conv_96                  1 1 hardswish_52.tmp_0 conv2d_208.tmp_0 0=128 1=1 11=1 2=1 12=1 3=1 13=1 4=0 14=0 15=0 16=0 5=1 6=16384
HardSwish        Div_53                   1 1 conv2d_208.tmp_0 hardswish_53.tmp_0 0=1.666667e-01 1=5.000000e-01
BinaryOp         Add_80                   2 1 hardswish_51.tmp_0 hardswish_53.tmp_0 tmp_0 0=0
ConvolutionDepthWise Conv_97                  1 1 hardswish_33.tmp_0_splitncnn_0 depthwise_conv2d_23.tmp_0 0=128 1=5 11=5 2=1 12=1 3=1 13=1 4=2 14=2 15=2 16=2 5=1 6=3200 7=128
HardSwish        Div_54                   1 1 depthwise_conv2d_23.tmp_0 hardswish_54.tmp_0 0=1.666667e-01 1=5.000000e-01
Convolution      Conv_98                  1 1 hardswish_54.tmp_0 conv2d_209.tmp_0 0=128 1=1 11=1 2=1 12=1 3=1 13=1 4=0 14=0 15=0 16=0 5=1 6=16384
HardSwish        Div_55                   1 1 conv2d_209.tmp_0 hardswish_55.tmp_0 0=1.666667e-01 1=5.000000e-01
ConvolutionDepthWise Conv_99                  1 1 hardswish_55.tmp_0 depthwise_conv2d_24.tmp_0 0=128 1=5 11=5 2=1 12=1 3=1 13=1 4=2 14=2 15=2 16=2 5=1 6=3200 7=128
HardSwish        Div_56                   1 1 depthwise_conv2d_24.tmp_0 hardswish_56.tmp_0 0=1.666667e-01 1=5.000000e-01
Convolution      Conv_100                 1 1 hardswish_56.tmp_0 conv2d_210.tmp_0 0=128 1=1 11=1 2=1 12=1 3=1 13=1 4=0 14=0 15=0 16=0 5=1 6=16384
HardSwish        Div_57                   1 1 conv2d_210.tmp_0 hardswish_57.tmp_0 0=1.666667e-01 1=5.000000e-01
ConvolutionDepthWise Conv_101                 1 1 hardswish_57.tmp_0 depthwise_conv2d_25.tmp_0 0=128 1=5 11=5 2=1 12=1 3=1 13=1 4=2 14=2 15=2 16=2 5=1 6=3200 7=128
HardSwish        Div_58                   1 1 depthwise_conv2d_25.tmp_0 hardswish_58.tmp_0 0=1.666667e-01 1=5.000000e-01
Convolution      Conv_102                 1 1 hardswish_58.tmp_0 conv2d_211.tmp_0 0=128 1=1 11=1 2=1 12=1 3=1 13=1 4=0 14=0 15=0 16=0 5=1 6=16384
HardSwish        Div_59                   1 1 conv2d_211.tmp_0 hardswish_59.tmp_0 0=1.666667e-01 1=5.000000e-01
ConvolutionDepthWise Conv_103                 1 1 hardswish_59.tmp_0 depthwise_conv2d_26.tmp_0 0=128 1=5 11=5 2=1 12=1 3=1 13=1 4=2 14=2 15=2 16=2 5=1 6=3200 7=128
HardSwish        Div_60                   1 1 depthwise_conv2d_26.tmp_0 hardswish_60.tmp_0 0=1.666667e-01 1=5.000000e-01
Convolution      Conv_104                 1 1 hardswish_60.tmp_0 conv2d_212.tmp_0 0=128 1=1 11=1 2=1 12=1 3=1 13=1 4=0 14=0 15=0 16=0 5=1 6=16384
HardSwish        Div_61                   1 1 conv2d_212.tmp_0 hardswish_61.tmp_0 0=1.666667e-01 1=5.000000e-01
Convolution      Conv_105                 1 1 hardswish_61.tmp_0 conv2d_213.tmp_0 0=112 1=1 11=1 2=1 12=1 3=1 13=1 4=0 14=0 15=0 16=0 5=1 6=14336
Slice            Split_0                  1 2 conv2d_213.tmp_0 split_0.tmp_0 split_0.tmp_1 -23300=2,80,-233 1=0
Sigmoid          Sigmoid_0                1 1 split_0.tmp_0 sigmoid_0.tmp_0
Reshape          Reshape_17               1 1 sigmoid_0.tmp_0 reshape2_0.tmp_0 0=-1 1=80
Permute          Transpose_0              1 1 reshape2_0.tmp_0 save_infer_model/scale_0.tmp_1 0=1
Reshape          Reshape_18               1 1 split_0.tmp_1 reshape2_1.tmp_0 0=-1 1=32
Permute          Transpose_1              1 1 reshape2_1.tmp_0 save_infer_model/scale_4.tmp_1 0=1
ConvolutionDepthWise Conv_106                 1 1 hardswish_41.tmp_0_splitncnn_0 depthwise_conv2d_27.tmp_0 0=128 1=5 11=5 2=1 12=1 3=1 13=1 4=2 14=2 15=2 16=2 5=1 6=3200 7=128
HardSwish        Div_62                   1 1 depthwise_conv2d_27.tmp_0 hardswish_62.tmp_0 0=1.666667e-01 1=5.000000e-01
Convolution      Conv_107                 1 1 hardswish_62.tmp_0 conv2d_214.tmp_0 0=128 1=1 11=1 2=1 12=1 3=1 13=1 4=0 14=0 15=0 16=0 5=1 6=16384
HardSwish        Div_63                   1 1 conv2d_214.tmp_0 hardswish_63.tmp_0 0=1.666667e-01 1=5.000000e-01
ConvolutionDepthWise Conv_108                 1 1 hardswish_63.tmp_0 depthwise_conv2d_28.tmp_0 0=128 1=5 11=5 2=1 12=1 3=1 13=1 4=2 14=2 15=2 16=2 5=1 6=3200 7=128
HardSwish        Div_64                   1 1 depthwise_conv2d_28.tmp_0 hardswish_64.tmp_0 0=1.666667e-01 1=5.000000e-01
Convolution      Conv_109                 1 1 hardswish_64.tmp_0 conv2d_215.tmp_0 0=128 1=1 11=1 2=1 12=1 3=1 13=1 4=0 14=0 15=0 16=0 5=1 6=16384
HardSwish        Div_65                   1 1 conv2d_215.tmp_0 hardswish_65.tmp_0 0=1.666667e-01 1=5.000000e-01
ConvolutionDepthWise Conv_110                 1 1 hardswish_65.tmp_0 depthwise_conv2d_29.tmp_0 0=128 1=5 11=5 2=1 12=1 3=1 13=1 4=2 14=2 15=2 16=2 5=1 6=3200 7=128
HardSwish        Div_66                   1 1 depthwise_conv2d_29.tmp_0 hardswish_66.tmp_0 0=1.666667e-01 1=5.000000e-01
Convolution      Conv_111                 1 1 hardswish_66.tmp_0 conv2d_216.tmp_0 0=128 1=1 11=1 2=1 12=1 3=1 13=1 4=0 14=0 15=0 16=0 5=1 6=16384
HardSwish        Div_67                   1 1 conv2d_216.tmp_0 hardswish_67.tmp_0 0=1.666667e-01 1=5.000000e-01
ConvolutionDepthWise Conv_112                 1 1 hardswish_67.tmp_0 depthwise_conv2d_30.tmp_0 0=128 1=5 11=5 2=1 12=1 3=1 13=1 4=2 14=2 15=2 16=2 5=1 6=3200 7=128
HardSwish        Div_68                   1 1 depthwise_conv2d_30.tmp_0 hardswish_68.tmp_0 0=1.666667e-01 1=5.000000e-01
Convolution      Conv_113                 1 1 hardswish_68.tmp_0 conv2d_217.tmp_0 0=128 1=1 11=1 2=1 12=1 3=1 13=1 4=0 14=0 15=0 16=0 5=1 6=16384
HardSwish        Div_69                   1 1 conv2d_217.tmp_0 hardswish_69.tmp_0 0=1.666667e-01 1=5.000000e-01
Convolution      Conv_114                 1 1 hardswish_69.tmp_0 conv2d_218.tmp_0 0=112 1=1 11=1 2=1 12=1 3=1 13=1 4=0 14=0 15=0 16=0 5=1 6=14336
Slice            Split_1                  1 2 conv2d_218.tmp_0 split_1.tmp_0 split_1.tmp_1 -23300=2,80,-233 1=0
Sigmoid          Sigmoid_1                1 1 split_1.tmp_0 sigmoid_1.tmp_0
Reshape          Reshape_20               1 1 sigmoid_1.tmp_0 reshape2_2.tmp_0 0=-1 1=80
Permute          Transpose_2              1 1 reshape2_2.tmp_0 save_infer_model/scale_1.tmp_1 0=1
Reshape          Reshape_21               1 1 split_1.tmp_1 reshape2_3.tmp_0 0=-1 1=32
Permute          Transpose_3              1 1 reshape2_3.tmp_0 save_infer_model/scale_5.tmp_1 0=1
ConvolutionDepthWise Conv_115                 1 1 hardswish_49.tmp_0_splitncnn_0 depthwise_conv2d_31.tmp_0 0=128 1=5 11=5 2=1 12=1 3=1 13=1 4=2 14=2 15=2 16=2 5=1 6=3200 7=128
HardSwish        Div_70                   1 1 depthwise_conv2d_31.tmp_0 hardswish_70.tmp_0 0=1.666667e-01 1=5.000000e-01
Convolution      Conv_116                 1 1 hardswish_70.tmp_0 conv2d_219.tmp_0 0=128 1=1 11=1 2=1 12=1 3=1 13=1 4=0 14=0 15=0 16=0 5=1 6=16384
HardSwish        Div_71                   1 1 conv2d_219.tmp_0 hardswish_71.tmp_0 0=1.666667e-01 1=5.000000e-01
ConvolutionDepthWise Conv_117                 1 1 hardswish_71.tmp_0 depthwise_conv2d_32.tmp_0 0=128 1=5 11=5 2=1 12=1 3=1 13=1 4=2 14=2 15=2 16=2 5=1 6=3200 7=128
HardSwish        Div_72                   1 1 depthwise_conv2d_32.tmp_0 hardswish_72.tmp_0 0=1.666667e-01 1=5.000000e-01
Convolution      Conv_118                 1 1 hardswish_72.tmp_0 conv2d_220.tmp_0 0=128 1=1 11=1 2=1 12=1 3=1 13=1 4=0 14=0 15=0 16=0 5=1 6=16384
HardSwish        Div_73                   1 1 conv2d_220.tmp_0 hardswish_73.tmp_0 0=1.666667e-01 1=5.000000e-01
ConvolutionDepthWise Conv_119                 1 1 hardswish_73.tmp_0 depthwise_conv2d_33.tmp_0 0=128 1=5 11=5 2=1 12=1 3=1 13=1 4=2 14=2 15=2 16=2 5=1 6=3200 7=128
HardSwish        Div_74                   1 1 depthwise_conv2d_33.tmp_0 hardswish_74.tmp_0 0=1.666667e-01 1=5.000000e-01
Convolution      Conv_120                 1 1 hardswish_74.tmp_0 conv2d_221.tmp_0 0=128 1=1 11=1 2=1 12=1 3=1 13=1 4=0 14=0 15=0 16=0 5=1 6=16384
HardSwish        Div_75                   1 1 conv2d_221.tmp_0 hardswish_75.tmp_0 0=1.666667e-01 1=5.000000e-01
ConvolutionDepthWise Conv_121                 1 1 hardswish_75.tmp_0 depthwise_conv2d_34.tmp_0 0=128 1=5 11=5 2=1 12=1 3=1 13=1 4=2 14=2 15=2 16=2 5=1 6=3200 7=128
HardSwish        Div_76                   1 1 depthwise_conv2d_34.tmp_0 hardswish_76.tmp_0 0=1.666667e-01 1=5.000000e-01
Convolution      Conv_122                 1 1 hardswish_76.tmp_0 conv2d_222.tmp_0 0=128 1=1 11=1 2=1 12=1 3=1 13=1 4=0 14=0 15=0 16=0 5=1 6=16384
HardSwish        Div_77                   1 1 conv2d_222.tmp_0 hardswish_77.tmp_0 0=1.666667e-01 1=5.000000e-01
Convolution      Conv_123                 1 1 hardswish_77.tmp_0 conv2d_223.tmp_0 0=112 1=1 11=1 2=1 12=1 3=1 13=1 4=0 14=0 15=0 16=0 5=1 6=14336
Slice            Split_2                  1 2 conv2d_223.tmp_0 split_2.tmp_0 split_2.tmp_1 -23300=2,80,-233 1=0
Sigmoid          Sigmoid_2                1 1 split_2.tmp_0 sigmoid_2.tmp_0
Reshape          Reshape_23               1 1 sigmoid_2.tmp_0 reshape2_4.tmp_0 0=-1 1=80
Permute          Transpose_4              1 1 reshape2_4.tmp_0 save_infer_model/scale_2.tmp_1 0=1
Reshape          Reshape_24               1 1 split_2.tmp_1 reshape2_5.tmp_0 0=-1 1=32
Permute          Transpose_5              1 1 reshape2_5.tmp_0 save_infer_model/scale_6.tmp_1 0=1
ConvolutionDepthWise Conv_124                 1 1 tmp_0 depthwise_conv2d_35.tmp_0 0=128 1=5 11=5 2=1 12=1 3=1 13=1 4=2 14=2 15=2 16=2 5=1 6=3200 7=128
HardSwish        Div_78                   1 1 depthwise_conv2d_35.tmp_0 hardswish_78.tmp_0 0=1.666667e-01 1=5.000000e-01
Convolution      Conv_125                 1 1 hardswish_78.tmp_0 conv2d_224.tmp_0 0=128 1=1 11=1 2=1 12=1 3=1 13=1 4=0 14=0 15=0 16=0 5=1 6=16384
HardSwish        Div_79                   1 1 conv2d_224.tmp_0 hardswish_79.tmp_0 0=1.666667e-01 1=5.000000e-01
ConvolutionDepthWise Conv_126                 1 1 hardswish_79.tmp_0 depthwise_conv2d_36.tmp_0 0=128 1=5 11=5 2=1 12=1 3=1 13=1 4=2 14=2 15=2 16=2 5=1 6=3200 7=128
HardSwish        Div_80                   1 1 depthwise_conv2d_36.tmp_0 hardswish_80.tmp_0 0=1.666667e-01 1=5.000000e-01
Convolution      Conv_127                 1 1 hardswish_80.tmp_0 conv2d_225.tmp_0 0=128 1=1 11=1 2=1 12=1 3=1 13=1 4=0 14=0 15=0 16=0 5=1 6=16384
HardSwish        Div_81                   1 1 conv2d_225.tmp_0 hardswish_81.tmp_0 0=1.666667e-01 1=5.000000e-01
ConvolutionDepthWise Conv_128                 1 1 hardswish_81.tmp_0 depthwise_conv2d_37.tmp_0 0=128 1=5 11=5 2=1 12=1 3=1 13=1 4=2 14=2 15=2 16=2 5=1 6=3200 7=128
HardSwish        Div_82                   1 1 depthwise_conv2d_37.tmp_0 hardswish_82.tmp_0 0=1.666667e-01 1=5.000000e-01
Convolution      Conv_129                 1 1 hardswish_82.tmp_0 conv2d_226.tmp_0 0=128 1=1 11=1 2=1 12=1 3=1 13=1 4=0 14=0 15=0 16=0 5=1 6=16384
HardSwish        Div_83                   1 1 conv2d_226.tmp_0 hardswish_83.tmp_0 0=1.666667e-01 1=5.000000e-01
ConvolutionDepthWise Conv_130                 1 1 hardswish_83.tmp_0 depthwise_conv2d_38.tmp_0 0=128 1=5 11=5 2=1 12=1 3=1 13=1 4=2 14=2 15=2 16=2 5=1 6=3200 7=128
HardSwish        Div_84                   1 1 depthwise_conv2d_38.tmp_0 hardswish_84.tmp_0 0=1.666667e-01 1=5.000000e-01
Convolution      Conv_131                 1 1 hardswish_84.tmp_0 conv2d_227.tmp_0 0=128 1=1 11=1 2=1 12=1 3=1 13=1 4=0 14=0 15=0 16=0 5=1 6=16384
HardSwish        Div_85                   1 1 conv2d_227.tmp_0 hardswish_85.tmp_0 0=1.666667e-01 1=5.000000e-01
Convolution      Conv_132                 1 1 hardswish_85.tmp_0 conv2d_228.tmp_0 0=112 1=1 11=1 2=1 12=1 3=1 13=1 4=0 14=0 15=0 16=0 5=1 6=14336
Slice            Split_3                  1 2 conv2d_228.tmp_0 split_3.tmp_0 split_3.tmp_1 -23300=2,80,-233 1=0
Sigmoid          Sigmoid_3                1 1 split_3.tmp_0 sigmoid_3.tmp_0
Reshape          Reshape_26               1 1 sigmoid_3.tmp_0 reshape2_6.tmp_0 0=-1 1=80
Permute          Transpose_6              1 1 reshape2_6.tmp_0 save_infer_model/scale_3.tmp_1 0=1
Reshape          Reshape_27               1 1 split_3.tmp_1 reshape2_7.tmp_0 0=-1 1=32
Permute          Transpose_7              1 1 reshape2_7.tmp_0 save_infer_model/scale_7.tmp_1 0=1
