7767517
387 439
Input            data                     0 1 data -23330=4,3,416,416,3 0=416 1=416 2=3
Convolution      Conv_0                   1 1 data conv2d_135.tmp_0 0=24 1=3 11=3 2=1 12=1 3=2 13=2 4=1 14=1 15=1 16=1 5=1 6=648
HardSwish        Div_0                    1 1 conv2d_135.tmp_0 batch_norm_0.tmp_4 0=1.666667e-01 1=5.000000e-01
Pooling          MaxPool_0                1 1 batch_norm_0.tmp_4 pool2d_0.tmp_0 0=0 1=3 11=3 2=2 12=2 3=1 13=1 14=1 15=1 5=1
Split            splitncnn_0              1 2 pool2d_0.tmp_0 pool2d_0.tmp_0_splitncnn_0 pool2d_0.tmp_0_splitncnn_1
ConvolutionDepthWise Conv_1                   1 1 pool2d_0.tmp_0_splitncnn_1 depthwise_conv2d_0.tmp_0 0=24 1=3 11=3 2=1 12=1 3=2 13=2 4=1 14=1 15=1 16=1 5=1 6=216 7=24
Convolution      Conv_2                   1 1 depthwise_conv2d_0.tmp_0 conv2d_136.tmp_0 0=48 1=1 11=1 2=1 12=1 3=1 13=1 4=0 14=0 15=0 16=0 5=1 6=1152
HardSwish        Div_1                    1 1 conv2d_136.tmp_0 batch_norm_2.tmp_4 0=1.666667e-01 1=5.000000e-01
Convolution      Conv_3                   1 1 pool2d_0.tmp_0_splitncnn_0 conv2d_137.tmp_0 0=44 1=1 11=1 2=1 12=1 3=1 13=1 4=0 14=0 15=0 16=0 5=1 6=1056
HardSwish        Div_2                    1 1 conv2d_137.tmp_0 batch_norm_3.tmp_4 0=1.666667e-01 1=5.000000e-01
ConvolutionDepthWise Conv_4                   1 1 batch_norm_3.tmp_4 depthwise_conv2d_1.tmp_0 0=44 1=3 11=3 2=1 12=1 3=2 13=2 4=1 14=1 15=1 16=1 5=1 6=396 7=44
Split            splitncnn_1              1 2 depthwise_conv2d_1.tmp_0 depthwise_conv2d_1.tmp_0_splitncnn_0 depthwise_conv2d_1.tmp_0_splitncnn_1
Pooling          GlobalAveragePool_0      1 1 depthwise_conv2d_1.tmp_0_splitncnn_1 pool2d_1.tmp_0 0=1 4=1
Convolution      Conv_5                   1 1 pool2d_1.tmp_0 conv2d_138.tmp_0 0=11 1=1 11=1 2=1 12=1 3=1 13=1 4=0 14=0 15=0 16=0 5=1 6=484
ReLU             Relu_0                   1 1 conv2d_138.tmp_0 relu_0.tmp_0
Convolution      Conv_6                   1 1 relu_0.tmp_0 conv2d_139.tmp_0 0=44 1=1 11=1 2=1 12=1 3=1 13=1 4=0 14=0 15=0 16=0 5=1 6=484
HardSigmoid      HardSigmoid_0            1 1 conv2d_139.tmp_0 hardsigmoid_0.tmp_0 0=1.666667e-01 1=5.000000e-01
BinaryOp         Mul_3                    2 1 depthwise_conv2d_1.tmp_0_splitncnn_0 hardsigmoid_0.tmp_0 elementwise_mul_0 0=2
Convolution      Conv_7                   1 1 elementwise_mul_0 conv2d_140.tmp_0 0=48 1=1 11=1 2=1 12=1 3=1 13=1 4=0 14=0 15=0 16=0 5=1 6=2112
HardSwish        Div_3                    1 1 conv2d_140.tmp_0 batch_norm_5.tmp_4 0=1.666667e-01 1=5.000000e-01
Concat           Concat_0                 2 1 batch_norm_2.tmp_4 batch_norm_5.tmp_4 concat_0.tmp_0 0=0
ConvolutionDepthWise Conv_8                   1 1 concat_0.tmp_0 depthwise_conv2d_2.tmp_0 0=96 1=3 11=3 2=1 12=1 3=1 13=1 4=1 14=1 15=1 16=1 5=1 6=864 7=96
HardSwish        Div_4                    1 1 depthwise_conv2d_2.tmp_0 batch_norm_6.tmp_4 0=1.666667e-01 1=5.000000e-01
Convolution      Conv_9                   1 1 batch_norm_6.tmp_4 conv2d_141.tmp_0 0=96 1=1 11=1 2=1 12=1 3=1 13=1 4=0 14=0 15=0 16=0 5=1 6=9216
HardSwish        Div_5                    1 1 conv2d_141.tmp_0 batch_norm_7.tmp_4 0=1.666667e-01 1=5.000000e-01
Slice            Split_0                  1 2 batch_norm_7.tmp_4 split_0.tmp_0 split_0.tmp_1 -23300=2,48,-233 1=0
Convolution      Conv_10                  1 1 split_0.tmp_1 conv2d_142.tmp_0 0=24 1=1 11=1 2=1 12=1 3=1 13=1 4=0 14=0 15=0 16=0 5=1 6=1152
HardSwish        Div_6                    1 1 conv2d_142.tmp_0 batch_norm_8.tmp_4 0=1.666667e-01 1=5.000000e-01
Split            splitncnn_2              1 2 batch_norm_8.tmp_4 batch_norm_8.tmp_4_splitncnn_0 batch_norm_8.tmp_4_splitncnn_1
ConvolutionDepthWise Conv_11                  1 1 batch_norm_8.tmp_4_splitncnn_1 depthwise_conv2d_3.tmp_0 0=24 1=3 11=3 2=1 12=1 3=1 13=1 4=1 14=1 15=1 16=1 5=1 6=216 7=24
Concat           Concat_1                 2 1 batch_norm_8.tmp_4_splitncnn_0 depthwise_conv2d_3.tmp_0 concat_1.tmp_0 0=0
Split            splitncnn_3              1 2 concat_1.tmp_0 concat_1.tmp_0_splitncnn_0 concat_1.tmp_0_splitncnn_1
Pooling          GlobalAveragePool_1      1 1 concat_1.tmp_0_splitncnn_1 pool2d_2.tmp_0 0=1 4=1
Convolution      Conv_12                  1 1 pool2d_2.tmp_0 conv2d_143.tmp_0 0=12 1=1 11=1 2=1 12=1 3=1 13=1 4=0 14=0 15=0 16=0 5=1 6=576
ReLU             Relu_1                   1 1 conv2d_143.tmp_0 relu_1.tmp_0
Convolution      Conv_13                  1 1 relu_1.tmp_0 conv2d_144.tmp_0 0=48 1=1 11=1 2=1 12=1 3=1 13=1 4=0 14=0 15=0 16=0 5=1 6=576
HardSigmoid      HardSigmoid_1            1 1 conv2d_144.tmp_0 hardsigmoid_1.tmp_0 0=1.666667e-01 1=5.000000e-01
BinaryOp         Mul_8                    2 1 concat_1.tmp_0_splitncnn_0 hardsigmoid_1.tmp_0 elementwise_mul_1 0=2
Convolution      Conv_14                  1 1 elementwise_mul_1 conv2d_145.tmp_0 0=48 1=1 11=1 2=1 12=1 3=1 13=1 4=0 14=0 15=0 16=0 5=1 6=2304
HardSwish        Div_7                    1 1 conv2d_145.tmp_0 batch_norm_10.tmp_4 0=1.666667e-01 1=5.000000e-01
Concat           Concat_2                 2 1 split_0.tmp_0 batch_norm_10.tmp_4 concat_2.tmp_0 0=0
ShuffleChannel   Reshape_5                1 1 concat_2.tmp_0 reshape2_1.tmp_0 0=2 1=0
Slice            Split_1                  1 2 reshape2_1.tmp_0 split_1.tmp_0 split_1.tmp_1 -23300=2,48,-233 1=0
Convolution      Conv_15                  1 1 split_1.tmp_1 conv2d_146.tmp_0 0=24 1=1 11=1 2=1 12=1 3=1 13=1 4=0 14=0 15=0 16=0 5=1 6=1152
HardSwish        Div_8                    1 1 conv2d_146.tmp_0 batch_norm_11.tmp_4 0=1.666667e-01 1=5.000000e-01
Split            splitncnn_4              1 2 batch_norm_11.tmp_4 batch_norm_11.tmp_4_splitncnn_0 batch_norm_11.tmp_4_splitncnn_1
ConvolutionDepthWise Conv_16                  1 1 batch_norm_11.tmp_4_splitncnn_1 depthwise_conv2d_4.tmp_0 0=24 1=3 11=3 2=1 12=1 3=1 13=1 4=1 14=1 15=1 16=1 5=1 6=216 7=24
Concat           Concat_3                 2 1 batch_norm_11.tmp_4_splitncnn_0 depthwise_conv2d_4.tmp_0 concat_3.tmp_0 0=0
Split            splitncnn_5              1 2 concat_3.tmp_0 concat_3.tmp_0_splitncnn_0 concat_3.tmp_0_splitncnn_1
Pooling          GlobalAveragePool_2      1 1 concat_3.tmp_0_splitncnn_1 pool2d_3.tmp_0 0=1 4=1
Convolution      Conv_17                  1 1 pool2d_3.tmp_0 conv2d_147.tmp_0 0=12 1=1 11=1 2=1 12=1 3=1 13=1 4=0 14=0 15=0 16=0 5=1 6=576
ReLU             Relu_2                   1 1 conv2d_147.tmp_0 relu_2.tmp_0
Convolution      Conv_18                  1 1 relu_2.tmp_0 conv2d_148.tmp_0 0=48 1=1 11=1 2=1 12=1 3=1 13=1 4=0 14=0 15=0 16=0 5=1 6=576
HardSigmoid      HardSigmoid_2            1 1 conv2d_148.tmp_0 hardsigmoid_2.tmp_0 0=1.666667e-01 1=5.000000e-01
BinaryOp         Mul_11                   2 1 concat_3.tmp_0_splitncnn_0 hardsigmoid_2.tmp_0 elementwise_mul_2 0=2
Convolution      Conv_19                  1 1 elementwise_mul_2 conv2d_149.tmp_0 0=48 1=1 11=1 2=1 12=1 3=1 13=1 4=0 14=0 15=0 16=0 5=1 6=2304
HardSwish        Div_9                    1 1 conv2d_149.tmp_0 batch_norm_13.tmp_4 0=1.666667e-01 1=5.000000e-01
Concat           Concat_4                 2 1 split_1.tmp_0 batch_norm_13.tmp_4 concat_4.tmp_0 0=0
ShuffleChannel   Reshape_9                1 1 concat_4.tmp_0 reshape2_3.tmp_0 0=2 1=0
Split            splitncnn_6              1 3 reshape2_3.tmp_0 reshape2_3.tmp_0_splitncnn_0 reshape2_3.tmp_0_splitncnn_1 reshape2_3.tmp_0_splitncnn_2
ConvolutionDepthWise Conv_20                  1 1 reshape2_3.tmp_0_splitncnn_2 depthwise_conv2d_5.tmp_0 0=96 1=3 11=3 2=1 12=1 3=2 13=2 4=1 14=1 15=1 16=1 5=1 6=864 7=96
Convolution      Conv_21                  1 1 depthwise_conv2d_5.tmp_0 conv2d_150.tmp_0 0=96 1=1 11=1 2=1 12=1 3=1 13=1 4=0 14=0 15=0 16=0 5=1 6=9216
HardSwish        Div_10                   1 1 conv2d_150.tmp_0 batch_norm_15.tmp_4 0=1.666667e-01 1=5.000000e-01
Convolution      Conv_22                  1 1 reshape2_3.tmp_0_splitncnn_1 conv2d_151.tmp_0 0=48 1=1 11=1 2=1 12=1 3=1 13=1 4=0 14=0 15=0 16=0 5=1 6=4608
HardSwish        Div_11                   1 1 conv2d_151.tmp_0 batch_norm_16.tmp_4 0=1.666667e-01 1=5.000000e-01
ConvolutionDepthWise Conv_23                  1 1 batch_norm_16.tmp_4 depthwise_conv2d_6.tmp_0 0=48 1=3 11=3 2=1 12=1 3=2 13=2 4=1 14=1 15=1 16=1 5=1 6=432 7=48
Split            splitncnn_7              1 2 depthwise_conv2d_6.tmp_0 depthwise_conv2d_6.tmp_0_splitncnn_0 depthwise_conv2d_6.tmp_0_splitncnn_1
Pooling          GlobalAveragePool_3      1 1 depthwise_conv2d_6.tmp_0_splitncnn_1 pool2d_4.tmp_0 0=1 4=1
Convolution      Conv_24                  1 1 pool2d_4.tmp_0 conv2d_152.tmp_0 0=12 1=1 11=1 2=1 12=1 3=1 13=1 4=0 14=0 15=0 16=0 5=1 6=576
ReLU             Relu_3                   1 1 conv2d_152.tmp_0 relu_3.tmp_0
Convolution      Conv_25                  1 1 relu_3.tmp_0 conv2d_153.tmp_0 0=48 1=1 11=1 2=1 12=1 3=1 13=1 4=0 14=0 15=0 16=0 5=1 6=576
HardSigmoid      HardSigmoid_3            1 1 conv2d_153.tmp_0 hardsigmoid_3.tmp_0 0=1.666667e-01 1=5.000000e-01
BinaryOp         Mul_15                   2 1 depthwise_conv2d_6.tmp_0_splitncnn_0 hardsigmoid_3.tmp_0 elementwise_mul_3 0=2
Convolution      Conv_26                  1 1 elementwise_mul_3 conv2d_154.tmp_0 0=96 1=1 11=1 2=1 12=1 3=1 13=1 4=0 14=0 15=0 16=0 5=1 6=4608
HardSwish        Div_12                   1 1 conv2d_154.tmp_0 batch_norm_18.tmp_4 0=1.666667e-01 1=5.000000e-01
Concat           Concat_5                 2 1 batch_norm_15.tmp_4 batch_norm_18.tmp_4 concat_5.tmp_0 0=0
ConvolutionDepthWise Conv_27                  1 1 concat_5.tmp_0 depthwise_conv2d_7.tmp_0 0=192 1=3 11=3 2=1 12=1 3=1 13=1 4=1 14=1 15=1 16=1 5=1 6=1728 7=192
HardSwish        Div_13                   1 1 depthwise_conv2d_7.tmp_0 batch_norm_19.tmp_4 0=1.666667e-01 1=5.000000e-01
Convolution      Conv_28                  1 1 batch_norm_19.tmp_4 conv2d_155.tmp_0 0=192 1=1 11=1 2=1 12=1 3=1 13=1 4=0 14=0 15=0 16=0 5=1 6=36864
HardSwish        Div_14                   1 1 conv2d_155.tmp_0 batch_norm_20.tmp_4 0=1.666667e-01 1=5.000000e-01
Slice            Split_2                  1 2 batch_norm_20.tmp_4 split_2.tmp_0 split_2.tmp_1 -23300=2,96,-233 1=0
Convolution      Conv_29                  1 1 split_2.tmp_1 conv2d_156.tmp_0 0=60 1=1 11=1 2=1 12=1 3=1 13=1 4=0 14=0 15=0 16=0 5=1 6=5760
HardSwish        Div_15                   1 1 conv2d_156.tmp_0 batch_norm_21.tmp_4 0=1.666667e-01 1=5.000000e-01
Split            splitncnn_8              1 2 batch_norm_21.tmp_4 batch_norm_21.tmp_4_splitncnn_0 batch_norm_21.tmp_4_splitncnn_1
ConvolutionDepthWise Conv_30                  1 1 batch_norm_21.tmp_4_splitncnn_1 depthwise_conv2d_8.tmp_0 0=60 1=3 11=3 2=1 12=1 3=1 13=1 4=1 14=1 15=1 16=1 5=1 6=540 7=60
Concat           Concat_6                 2 1 batch_norm_21.tmp_4_splitncnn_0 depthwise_conv2d_8.tmp_0 concat_6.tmp_0 0=0
Split            splitncnn_9              1 2 concat_6.tmp_0 concat_6.tmp_0_splitncnn_0 concat_6.tmp_0_splitncnn_1
Pooling          GlobalAveragePool_4      1 1 concat_6.tmp_0_splitncnn_1 pool2d_5.tmp_0 0=1 4=1
Convolution      Conv_31                  1 1 pool2d_5.tmp_0 conv2d_157.tmp_0 0=30 1=1 11=1 2=1 12=1 3=1 13=1 4=0 14=0 15=0 16=0 5=1 6=3600
ReLU             Relu_4                   1 1 conv2d_157.tmp_0 relu_4.tmp_0
Convolution      Conv_32                  1 1 relu_4.tmp_0 conv2d_158.tmp_0 0=120 1=1 11=1 2=1 12=1 3=1 13=1 4=0 14=0 15=0 16=0 5=1 6=3600
HardSigmoid      HardSigmoid_4            1 1 conv2d_158.tmp_0 hardsigmoid_4.tmp_0 0=1.666667e-01 1=5.000000e-01
BinaryOp         Mul_20                   2 1 concat_6.tmp_0_splitncnn_0 hardsigmoid_4.tmp_0 elementwise_mul_4 0=2
Convolution      Conv_33                  1 1 elementwise_mul_4 conv2d_159.tmp_0 0=96 1=1 11=1 2=1 12=1 3=1 13=1 4=0 14=0 15=0 16=0 5=1 6=11520
HardSwish        Div_16                   1 1 conv2d_159.tmp_0 batch_norm_23.tmp_4 0=1.666667e-01 1=5.000000e-01
Concat           Concat_7                 2 1 split_2.tmp_0 batch_norm_23.tmp_4 concat_7.tmp_0 0=0
ShuffleChannel   Reshape_15               1 1 concat_7.tmp_0 reshape2_5.tmp_0 0=2 1=0
Slice            Split_3                  1 2 reshape2_5.tmp_0 split_3.tmp_0 split_3.tmp_1 -23300=2,96,-233 1=0
Convolution      Conv_34                  1 1 split_3.tmp_1 conv2d_160.tmp_0 0=48 1=1 11=1 2=1 12=1 3=1 13=1 4=0 14=0 15=0 16=0 5=1 6=4608
HardSwish        Div_17                   1 1 conv2d_160.tmp_0 batch_norm_24.tmp_4 0=1.666667e-01 1=5.000000e-01
Split            splitncnn_10             1 2 batch_norm_24.tmp_4 batch_norm_24.tmp_4_splitncnn_0 batch_norm_24.tmp_4_splitncnn_1
ConvolutionDepthWise Conv_35                  1 1 batch_norm_24.tmp_4_splitncnn_1 depthwise_conv2d_9.tmp_0 0=48 1=3 11=3 2=1 12=1 3=1 13=1 4=1 14=1 15=1 16=1 5=1 6=432 7=48
Concat           Concat_8                 2 1 batch_norm_24.tmp_4_splitncnn_0 depthwise_conv2d_9.tmp_0 concat_8.tmp_0 0=0
Split            splitncnn_11             1 2 concat_8.tmp_0 concat_8.tmp_0_splitncnn_0 concat_8.tmp_0_splitncnn_1
Pooling          GlobalAveragePool_5      1 1 concat_8.tmp_0_splitncnn_1 pool2d_6.tmp_0 0=1 4=1
Convolution      Conv_36                  1 1 pool2d_6.tmp_0 conv2d_161.tmp_0 0=24 1=1 11=1 2=1 12=1 3=1 13=1 4=0 14=0 15=0 16=0 5=1 6=2304
ReLU             Relu_5                   1 1 conv2d_161.tmp_0 relu_5.tmp_0
Convolution      Conv_37                  1 1 relu_5.tmp_0 conv2d_162.tmp_0 0=96 1=1 11=1 2=1 12=1 3=1 13=1 4=0 14=0 15=0 16=0 5=1 6=2304
HardSigmoid      HardSigmoid_5            1 1 conv2d_162.tmp_0 hardsigmoid_5.tmp_0 0=1.666667e-01 1=5.000000e-01
BinaryOp         Mul_23                   2 1 concat_8.tmp_0_splitncnn_0 hardsigmoid_5.tmp_0 elementwise_mul_5 0=2
Convolution      Conv_38                  1 1 elementwise_mul_5 conv2d_163.tmp_0 0=96 1=1 11=1 2=1 12=1 3=1 13=1 4=0 14=0 15=0 16=0 5=1 6=9216
HardSwish        Div_18                   1 1 conv2d_163.tmp_0 batch_norm_26.tmp_4 0=1.666667e-01 1=5.000000e-01
Concat           Concat_9                 2 1 split_3.tmp_0 batch_norm_26.tmp_4 concat_9.tmp_0 0=0
ShuffleChannel   Reshape_19               1 1 concat_9.tmp_0 reshape2_7.tmp_0 0=2 1=0
Slice            Split_4                  1 2 reshape2_7.tmp_0 split_4.tmp_0 split_4.tmp_1 -23300=2,96,-233 1=0
Convolution      Conv_39                  1 1 split_4.tmp_1 conv2d_164.tmp_0 0=60 1=1 11=1 2=1 12=1 3=1 13=1 4=0 14=0 15=0 16=0 5=1 6=5760
HardSwish        Div_19                   1 1 conv2d_164.tmp_0 batch_norm_27.tmp_4 0=1.666667e-01 1=5.000000e-01
Split            splitncnn_12             1 2 batch_norm_27.tmp_4 batch_norm_27.tmp_4_splitncnn_0 batch_norm_27.tmp_4_splitncnn_1
ConvolutionDepthWise Conv_40                  1 1 batch_norm_27.tmp_4_splitncnn_1 depthwise_conv2d_10.tmp_0 0=60 1=3 11=3 2=1 12=1 3=1 13=1 4=1 14=1 15=1 16=1 5=1 6=540 7=60
Concat           Concat_10                2 1 batch_norm_27.tmp_4_splitncnn_0 depthwise_conv2d_10.tmp_0 concat_10.tmp_0 0=0
Split            splitncnn_13             1 2 concat_10.tmp_0 concat_10.tmp_0_splitncnn_0 concat_10.tmp_0_splitncnn_1
Pooling          GlobalAveragePool_6      1 1 concat_10.tmp_0_splitncnn_1 pool2d_7.tmp_0 0=1 4=1
Convolution      Conv_41                  1 1 pool2d_7.tmp_0 conv2d_165.tmp_0 0=30 1=1 11=1 2=1 12=1 3=1 13=1 4=0 14=0 15=0 16=0 5=1 6=3600
ReLU             Relu_6                   1 1 conv2d_165.tmp_0 relu_6.tmp_0
Convolution      Conv_42                  1 1 relu_6.tmp_0 conv2d_166.tmp_0 0=120 1=1 11=1 2=1 12=1 3=1 13=1 4=0 14=0 15=0 16=0 5=1 6=3600
HardSigmoid      HardSigmoid_6            1 1 conv2d_166.tmp_0 hardsigmoid_6.tmp_0 0=1.666667e-01 1=5.000000e-01
BinaryOp         Mul_26                   2 1 concat_10.tmp_0_splitncnn_0 hardsigmoid_6.tmp_0 elementwise_mul_6 0=2
Convolution      Conv_43                  1 1 elementwise_mul_6 conv2d_167.tmp_0 0=96 1=1 11=1 2=1 12=1 3=1 13=1 4=0 14=0 15=0 16=0 5=1 6=11520
HardSwish        Div_20                   1 1 conv2d_167.tmp_0 batch_norm_29.tmp_4 0=1.666667e-01 1=5.000000e-01
Concat           Concat_11                2 1 split_4.tmp_0 batch_norm_29.tmp_4 concat_11.tmp_0 0=0
ShuffleChannel   Reshape_23               1 1 concat_11.tmp_0 reshape2_9.tmp_0 0=2 1=0
Slice            Split_5                  1 2 reshape2_9.tmp_0 split_5.tmp_0 split_5.tmp_1 -23300=2,96,-233 1=0
Convolution      Conv_44                  1 1 split_5.tmp_1 conv2d_168.tmp_0 0=48 1=1 11=1 2=1 12=1 3=1 13=1 4=0 14=0 15=0 16=0 5=1 6=4608
HardSwish        Div_21                   1 1 conv2d_168.tmp_0 batch_norm_30.tmp_4 0=1.666667e-01 1=5.000000e-01
Split            splitncnn_14             1 2 batch_norm_30.tmp_4 batch_norm_30.tmp_4_splitncnn_0 batch_norm_30.tmp_4_splitncnn_1
ConvolutionDepthWise Conv_45                  1 1 batch_norm_30.tmp_4_splitncnn_1 depthwise_conv2d_11.tmp_0 0=48 1=3 11=3 2=1 12=1 3=1 13=1 4=1 14=1 15=1 16=1 5=1 6=432 7=48
Concat           Concat_12                2 1 batch_norm_30.tmp_4_splitncnn_0 depthwise_conv2d_11.tmp_0 concat_12.tmp_0 0=0
Split            splitncnn_15             1 2 concat_12.tmp_0 concat_12.tmp_0_splitncnn_0 concat_12.tmp_0_splitncnn_1
Pooling          GlobalAveragePool_7      1 1 concat_12.tmp_0_splitncnn_1 pool2d_8.tmp_0 0=1 4=1
Convolution      Conv_46                  1 1 pool2d_8.tmp_0 conv2d_169.tmp_0 0=24 1=1 11=1 2=1 12=1 3=1 13=1 4=0 14=0 15=0 16=0 5=1 6=2304
ReLU             Relu_7                   1 1 conv2d_169.tmp_0 relu_7.tmp_0
Convolution      Conv_47                  1 1 relu_7.tmp_0 conv2d_170.tmp_0 0=96 1=1 11=1 2=1 12=1 3=1 13=1 4=0 14=0 15=0 16=0 5=1 6=2304
HardSigmoid      HardSigmoid_7            1 1 conv2d_170.tmp_0 hardsigmoid_7.tmp_0 0=1.666667e-01 1=5.000000e-01
BinaryOp         Mul_29                   2 1 concat_12.tmp_0_splitncnn_0 hardsigmoid_7.tmp_0 elementwise_mul_7 0=2
Convolution      Conv_48                  1 1 elementwise_mul_7 conv2d_171.tmp_0 0=96 1=1 11=1 2=1 12=1 3=1 13=1 4=0 14=0 15=0 16=0 5=1 6=9216
HardSwish        Div_22                   1 1 conv2d_171.tmp_0 batch_norm_32.tmp_4 0=1.666667e-01 1=5.000000e-01
Concat           Concat_13                2 1 split_5.tmp_0 batch_norm_32.tmp_4 concat_13.tmp_0 0=0
ShuffleChannel   Reshape_27               1 1 concat_13.tmp_0 reshape2_11.tmp_0 0=2 1=0
Slice            Split_6                  1 2 reshape2_11.tmp_0 split_6.tmp_0 split_6.tmp_1 -23300=2,96,-233 1=0
Convolution      Conv_49                  1 1 split_6.tmp_1 conv2d_172.tmp_0 0=48 1=1 11=1 2=1 12=1 3=1 13=1 4=0 14=0 15=0 16=0 5=1 6=4608
HardSwish        Div_23                   1 1 conv2d_172.tmp_0 batch_norm_33.tmp_4 0=1.666667e-01 1=5.000000e-01
Split            splitncnn_16             1 2 batch_norm_33.tmp_4 batch_norm_33.tmp_4_splitncnn_0 batch_norm_33.tmp_4_splitncnn_1
ConvolutionDepthWise Conv_50                  1 1 batch_norm_33.tmp_4_splitncnn_1 depthwise_conv2d_12.tmp_0 0=48 1=3 11=3 2=1 12=1 3=1 13=1 4=1 14=1 15=1 16=1 5=1 6=432 7=48
Concat           Concat_14                2 1 batch_norm_33.tmp_4_splitncnn_0 depthwise_conv2d_12.tmp_0 concat_14.tmp_0 0=0
Split            splitncnn_17             1 2 concat_14.tmp_0 concat_14.tmp_0_splitncnn_0 concat_14.tmp_0_splitncnn_1
Pooling          GlobalAveragePool_8      1 1 concat_14.tmp_0_splitncnn_1 pool2d_9.tmp_0 0=1 4=1
Convolution      Conv_51                  1 1 pool2d_9.tmp_0 conv2d_173.tmp_0 0=24 1=1 11=1 2=1 12=1 3=1 13=1 4=0 14=0 15=0 16=0 5=1 6=2304
ReLU             Relu_8                   1 1 conv2d_173.tmp_0 relu_8.tmp_0
Convolution      Conv_52                  1 1 relu_8.tmp_0 conv2d_174.tmp_0 0=96 1=1 11=1 2=1 12=1 3=1 13=1 4=0 14=0 15=0 16=0 5=1 6=2304
HardSigmoid      HardSigmoid_8            1 1 conv2d_174.tmp_0 hardsigmoid_8.tmp_0 0=1.666667e-01 1=5.000000e-01
BinaryOp         Mul_32                   2 1 concat_14.tmp_0_splitncnn_0 hardsigmoid_8.tmp_0 elementwise_mul_8 0=2
Convolution      Conv_53                  1 1 elementwise_mul_8 conv2d_175.tmp_0 0=96 1=1 11=1 2=1 12=1 3=1 13=1 4=0 14=0 15=0 16=0 5=1 6=9216
HardSwish        Div_24                   1 1 conv2d_175.tmp_0 batch_norm_35.tmp_4 0=1.666667e-01 1=5.000000e-01
Concat           Concat_15                2 1 split_6.tmp_0 batch_norm_35.tmp_4 concat_15.tmp_0 0=0
ShuffleChannel   Reshape_31               1 1 concat_15.tmp_0 reshape2_13.tmp_0 0=2 1=0
Slice            Split_7                  1 2 reshape2_13.tmp_0 split_7.tmp_0 split_7.tmp_1 -23300=2,96,-233 1=0
Convolution      Conv_54                  1 1 split_7.tmp_1 conv2d_176.tmp_0 0=48 1=1 11=1 2=1 12=1 3=1 13=1 4=0 14=0 15=0 16=0 5=1 6=4608
HardSwish        Div_25                   1 1 conv2d_176.tmp_0 batch_norm_36.tmp_4 0=1.666667e-01 1=5.000000e-01
Split            splitncnn_18             1 2 batch_norm_36.tmp_4 batch_norm_36.tmp_4_splitncnn_0 batch_norm_36.tmp_4_splitncnn_1
ConvolutionDepthWise Conv_55                  1 1 batch_norm_36.tmp_4_splitncnn_1 depthwise_conv2d_13.tmp_0 0=48 1=3 11=3 2=1 12=1 3=1 13=1 4=1 14=1 15=1 16=1 5=1 6=432 7=48
Concat           Concat_16                2 1 batch_norm_36.tmp_4_splitncnn_0 depthwise_conv2d_13.tmp_0 concat_16.tmp_0 0=0
Split            splitncnn_19             1 2 concat_16.tmp_0 concat_16.tmp_0_splitncnn_0 concat_16.tmp_0_splitncnn_1
Pooling          GlobalAveragePool_9      1 1 concat_16.tmp_0_splitncnn_1 pool2d_10.tmp_0 0=1 4=1
Convolution      Conv_56                  1 1 pool2d_10.tmp_0 conv2d_177.tmp_0 0=24 1=1 11=1 2=1 12=1 3=1 13=1 4=0 14=0 15=0 16=0 5=1 6=2304
ReLU             Relu_9                   1 1 conv2d_177.tmp_0 relu_9.tmp_0
Convolution      Conv_57                  1 1 relu_9.tmp_0 conv2d_178.tmp_0 0=96 1=1 11=1 2=1 12=1 3=1 13=1 4=0 14=0 15=0 16=0 5=1 6=2304
HardSigmoid      HardSigmoid_9            1 1 conv2d_178.tmp_0 hardsigmoid_9.tmp_0 0=1.666667e-01 1=5.000000e-01
BinaryOp         Mul_35                   2 1 concat_16.tmp_0_splitncnn_0 hardsigmoid_9.tmp_0 elementwise_mul_9 0=2
Convolution      Conv_58                  1 1 elementwise_mul_9 conv2d_179.tmp_0 0=96 1=1 11=1 2=1 12=1 3=1 13=1 4=0 14=0 15=0 16=0 5=1 6=9216
HardSwish        Div_26                   1 1 conv2d_179.tmp_0 batch_norm_38.tmp_4 0=1.666667e-01 1=5.000000e-01
Concat           Concat_17                2 1 split_7.tmp_0 batch_norm_38.tmp_4 concat_17.tmp_0 0=0
ShuffleChannel   Reshape_35               1 1 concat_17.tmp_0 reshape2_15.tmp_0 0=2 1=0
Split            splitncnn_20             1 3 reshape2_15.tmp_0 reshape2_15.tmp_0_splitncnn_0 reshape2_15.tmp_0_splitncnn_1 reshape2_15.tmp_0_splitncnn_2
ConvolutionDepthWise Conv_59                  1 1 reshape2_15.tmp_0_splitncnn_2 depthwise_conv2d_14.tmp_0 0=192 1=3 11=3 2=1 12=1 3=2 13=2 4=1 14=1 15=1 16=1 5=1 6=1728 7=192
Convolution      Conv_60                  1 1 depthwise_conv2d_14.tmp_0 conv2d_180.tmp_0 0=192 1=1 11=1 2=1 12=1 3=1 13=1 4=0 14=0 15=0 16=0 5=1 6=36864
HardSwish        Div_27                   1 1 conv2d_180.tmp_0 batch_norm_40.tmp_4 0=1.666667e-01 1=5.000000e-01
Convolution      Conv_61                  1 1 reshape2_15.tmp_0_splitncnn_1 conv2d_181.tmp_0 0=96 1=1 11=1 2=1 12=1 3=1 13=1 4=0 14=0 15=0 16=0 5=1 6=18432
HardSwish        Div_28                   1 1 conv2d_181.tmp_0 batch_norm_41.tmp_4 0=1.666667e-01 1=5.000000e-01
ConvolutionDepthWise Conv_62                  1 1 batch_norm_41.tmp_4 depthwise_conv2d_15.tmp_0 0=96 1=3 11=3 2=1 12=1 3=2 13=2 4=1 14=1 15=1 16=1 5=1 6=864 7=96
Split            splitncnn_21             1 2 depthwise_conv2d_15.tmp_0 depthwise_conv2d_15.tmp_0_splitncnn_0 depthwise_conv2d_15.tmp_0_splitncnn_1
Pooling          GlobalAveragePool_10     1 1 depthwise_conv2d_15.tmp_0_splitncnn_1 pool2d_11.tmp_0 0=1 4=1
Convolution      Conv_63                  1 1 pool2d_11.tmp_0 conv2d_182.tmp_0 0=24 1=1 11=1 2=1 12=1 3=1 13=1 4=0 14=0 15=0 16=0 5=1 6=2304
ReLU             Relu_10                  1 1 conv2d_182.tmp_0 relu_10.tmp_0
Convolution      Conv_64                  1 1 relu_10.tmp_0 conv2d_183.tmp_0 0=96 1=1 11=1 2=1 12=1 3=1 13=1 4=0 14=0 15=0 16=0 5=1 6=2304
HardSigmoid      HardSigmoid_10           1 1 conv2d_183.tmp_0 hardsigmoid_10.tmp_0 0=1.666667e-01 1=5.000000e-01
BinaryOp         Mul_39                   2 1 depthwise_conv2d_15.tmp_0_splitncnn_0 hardsigmoid_10.tmp_0 elementwise_mul_10 0=2
Convolution      Conv_65                  1 1 elementwise_mul_10 conv2d_184.tmp_0 0=192 1=1 11=1 2=1 12=1 3=1 13=1 4=0 14=0 15=0 16=0 5=1 6=18432
HardSwish        Div_29                   1 1 conv2d_184.tmp_0 batch_norm_43.tmp_4 0=1.666667e-01 1=5.000000e-01
Concat           Concat_18                2 1 batch_norm_40.tmp_4 batch_norm_43.tmp_4 concat_18.tmp_0 0=0
ConvolutionDepthWise Conv_66                  1 1 concat_18.tmp_0 depthwise_conv2d_16.tmp_0 0=384 1=3 11=3 2=1 12=1 3=1 13=1 4=1 14=1 15=1 16=1 5=1 6=3456 7=384
HardSwish        Div_30                   1 1 depthwise_conv2d_16.tmp_0 batch_norm_44.tmp_4 0=1.666667e-01 1=5.000000e-01
Convolution      Conv_67                  1 1 batch_norm_44.tmp_4 conv2d_185.tmp_0 0=384 1=1 11=1 2=1 12=1 3=1 13=1 4=0 14=0 15=0 16=0 5=1 6=147456
HardSwish        Div_31                   1 1 conv2d_185.tmp_0 batch_norm_45.tmp_4 0=1.666667e-01 1=5.000000e-01
Slice            Split_8                  1 2 batch_norm_45.tmp_4 split_8.tmp_0 split_8.tmp_1 -23300=2,192,-233 1=0
Convolution      Conv_68                  1 1 split_8.tmp_1 conv2d_186.tmp_0 0=96 1=1 11=1 2=1 12=1 3=1 13=1 4=0 14=0 15=0 16=0 5=1 6=18432
HardSwish        Div_32                   1 1 conv2d_186.tmp_0 batch_norm_46.tmp_4 0=1.666667e-01 1=5.000000e-01
Split            splitncnn_22             1 2 batch_norm_46.tmp_4 batch_norm_46.tmp_4_splitncnn_0 batch_norm_46.tmp_4_splitncnn_1
ConvolutionDepthWise Conv_69                  1 1 batch_norm_46.tmp_4_splitncnn_1 depthwise_conv2d_17.tmp_0 0=96 1=3 11=3 2=1 12=1 3=1 13=1 4=1 14=1 15=1 16=1 5=1 6=864 7=96
Concat           Concat_19                2 1 batch_norm_46.tmp_4_splitncnn_0 depthwise_conv2d_17.tmp_0 concat_19.tmp_0 0=0
Split            splitncnn_23             1 2 concat_19.tmp_0 concat_19.tmp_0_splitncnn_0 concat_19.tmp_0_splitncnn_1
Pooling          GlobalAveragePool_11     1 1 concat_19.tmp_0_splitncnn_1 pool2d_12.tmp_0 0=1 4=1
Convolution      Conv_70                  1 1 pool2d_12.tmp_0 conv2d_187.tmp_0 0=48 1=1 11=1 2=1 12=1 3=1 13=1 4=0 14=0 15=0 16=0 5=1 6=9216
ReLU             Relu_11                  1 1 conv2d_187.tmp_0 relu_11.tmp_0
Convolution      Conv_71                  1 1 relu_11.tmp_0 conv2d_188.tmp_0 0=192 1=1 11=1 2=1 12=1 3=1 13=1 4=0 14=0 15=0 16=0 5=1 6=9216
HardSigmoid      HardSigmoid_11           1 1 conv2d_188.tmp_0 hardsigmoid_11.tmp_0 0=1.666667e-01 1=5.000000e-01
BinaryOp         Mul_44                   2 1 concat_19.tmp_0_splitncnn_0 hardsigmoid_11.tmp_0 elementwise_mul_11 0=2
Convolution      Conv_72                  1 1 elementwise_mul_11 conv2d_189.tmp_0 0=192 1=1 11=1 2=1 12=1 3=1 13=1 4=0 14=0 15=0 16=0 5=1 6=36864
HardSwish        Div_33                   1 1 conv2d_189.tmp_0 batch_norm_48.tmp_4 0=1.666667e-01 1=5.000000e-01
Concat           Concat_20                2 1 split_8.tmp_0 batch_norm_48.tmp_4 concat_20.tmp_0 0=0
ShuffleChannel   Reshape_41               1 1 concat_20.tmp_0 reshape2_17.tmp_0 0=2 1=0
Slice            Split_9                  1 2 reshape2_17.tmp_0 split_9.tmp_0 split_9.tmp_1 -23300=2,192,-233 1=0
Convolution      Conv_73                  1 1 split_9.tmp_1 conv2d_190.tmp_0 0=96 1=1 11=1 2=1 12=1 3=1 13=1 4=0 14=0 15=0 16=0 5=1 6=18432
HardSwish        Div_34                   1 1 conv2d_190.tmp_0 batch_norm_49.tmp_4 0=1.666667e-01 1=5.000000e-01
Split            splitncnn_24             1 2 batch_norm_49.tmp_4 batch_norm_49.tmp_4_splitncnn_0 batch_norm_49.tmp_4_splitncnn_1
ConvolutionDepthWise Conv_74                  1 1 batch_norm_49.tmp_4_splitncnn_1 depthwise_conv2d_18.tmp_0 0=96 1=3 11=3 2=1 12=1 3=1 13=1 4=1 14=1 15=1 16=1 5=1 6=864 7=96
Concat           Concat_21                2 1 batch_norm_49.tmp_4_splitncnn_0 depthwise_conv2d_18.tmp_0 concat_21.tmp_0 0=0
Split            splitncnn_25             1 2 concat_21.tmp_0 concat_21.tmp_0_splitncnn_0 concat_21.tmp_0_splitncnn_1
Pooling          GlobalAveragePool_12     1 1 concat_21.tmp_0_splitncnn_1 pool2d_13.tmp_0 0=1 4=1
Convolution      Conv_75                  1 1 pool2d_13.tmp_0 conv2d_191.tmp_0 0=48 1=1 11=1 2=1 12=1 3=1 13=1 4=0 14=0 15=0 16=0 5=1 6=9216
ReLU             Relu_12                  1 1 conv2d_191.tmp_0 relu_12.tmp_0
Convolution      Conv_76                  1 1 relu_12.tmp_0 conv2d_192.tmp_0 0=192 1=1 11=1 2=1 12=1 3=1 13=1 4=0 14=0 15=0 16=0 5=1 6=9216
HardSigmoid      HardSigmoid_12           1 1 conv2d_192.tmp_0 hardsigmoid_12.tmp_0 0=1.666667e-01 1=5.000000e-01
BinaryOp         Mul_47                   2 1 concat_21.tmp_0_splitncnn_0 hardsigmoid_12.tmp_0 elementwise_mul_12 0=2
Convolution      Conv_77                  1 1 elementwise_mul_12 conv2d_193.tmp_0 0=192 1=1 11=1 2=1 12=1 3=1 13=1 4=0 14=0 15=0 16=0 5=1 6=36864
HardSwish        Div_35                   1 1 conv2d_193.tmp_0 batch_norm_51.tmp_4 0=1.666667e-01 1=5.000000e-01
Concat           Concat_22                2 1 split_9.tmp_0 batch_norm_51.tmp_4 concat_22.tmp_0 0=0
ShuffleChannel   Reshape_45               1 1 concat_22.tmp_0 reshape2_19.tmp_0 0=2 1=0
Convolution      Conv_78                  1 1 reshape2_3.tmp_0_splitncnn_0 conv2d_194.tmp_0 0=96 1=1 11=1 2=1 12=1 3=1 13=1 4=0 14=0 15=0 16=0 5=1 6=9216
HardSwish        Div_36                   1 1 conv2d_194.tmp_0 hardswish_0.tmp_0 0=1.666667e-01 1=5.000000e-01
Convolution      Conv_79                  1 1 reshape2_15.tmp_0_splitncnn_0 conv2d_195.tmp_0 0=96 1=1 11=1 2=1 12=1 3=1 13=1 4=0 14=0 15=0 16=0 5=1 6=18432
HardSwish        Div_37                   1 1 conv2d_195.tmp_0 hardswish_1.tmp_0 0=1.666667e-01 1=5.000000e-01
Convolution      Conv_80                  1 1 reshape2_19.tmp_0 conv2d_196.tmp_0 0=96 1=1 11=1 2=1 12=1 3=1 13=1 4=0 14=0 15=0 16=0 5=1 6=36864
HardSwish        Div_38                   1 1 conv2d_196.tmp_0 hardswish_2.tmp_0 0=1.666667e-01 1=5.000000e-01
Split            splitncnn_26             1 3 hardswish_2.tmp_0 hardswish_2.tmp_0_splitncnn_0 hardswish_2.tmp_0_splitncnn_1 hardswish_2.tmp_0_splitncnn_2
Interp           Resize_0                 1 1 hardswish_2.tmp_0_splitncnn_2 nearest_interp_v2_0.tmp_0 0=1 1=2.000000e+00 2=2.000000e+00 3=0 4=0 6=0
Concat           Concat_23                2 1 nearest_interp_v2_0.tmp_0 hardswish_1.tmp_0 concat_23.tmp_0 0=0
Split            splitncnn_27             1 2 concat_23.tmp_0 concat_23.tmp_0_splitncnn_0 concat_23.tmp_0_splitncnn_1
Convolution      Conv_81                  1 1 concat_23.tmp_0_splitncnn_1 conv2d_197.tmp_0 0=48 1=1 11=1 2=1 12=1 3=1 13=1 4=0 14=0 15=0 16=0 5=1 6=9216
HardSwish        Div_39                   1 1 conv2d_197.tmp_0 hardswish_3.tmp_0 0=1.666667e-01 1=5.000000e-01
Convolution      Conv_82                  1 1 concat_23.tmp_0_splitncnn_0 conv2d_198.tmp_0 0=48 1=1 11=1 2=1 12=1 3=1 13=1 4=0 14=0 15=0 16=0 5=1 6=9216
HardSwish        Div_40                   1 1 conv2d_198.tmp_0 hardswish_4.tmp_0 0=1.666667e-01 1=5.000000e-01
Convolution      Conv_83                  1 1 hardswish_4.tmp_0 conv2d_199.tmp_0 0=48 1=1 11=1 2=1 12=1 3=1 13=1 4=0 14=0 15=0 16=0 5=1 6=2304
HardSwish        Div_41                   1 1 conv2d_199.tmp_0 hardswish_5.tmp_0 0=1.666667e-01 1=5.000000e-01
ConvolutionDepthWise Conv_84                  1 1 hardswish_5.tmp_0 depthwise_conv2d_19.tmp_0 0=48 1=5 11=5 2=1 12=1 3=1 13=1 4=2 14=2 15=2 16=2 5=1 6=1200 7=48
HardSwish        Div_42                   1 1 depthwise_conv2d_19.tmp_0 hardswish_6.tmp_0 0=1.666667e-01 1=5.000000e-01
Convolution      Conv_85                  1 1 hardswish_6.tmp_0 conv2d_200.tmp_0 0=48 1=1 11=1 2=1 12=1 3=1 13=1 4=0 14=0 15=0 16=0 5=1 6=2304
HardSwish        Div_43                   1 1 conv2d_200.tmp_0 hardswish_7.tmp_0 0=1.666667e-01 1=5.000000e-01
Concat           Concat_24                2 1 hardswish_7.tmp_0 hardswish_3.tmp_0 concat_24.tmp_0 0=0
Convolution      Conv_86                  1 1 concat_24.tmp_0 conv2d_201.tmp_0 0=96 1=1 11=1 2=1 12=1 3=1 13=1 4=0 14=0 15=0 16=0 5=1 6=9216
HardSwish        Div_44                   1 1 conv2d_201.tmp_0 hardswish_8.tmp_0 0=1.666667e-01 1=5.000000e-01
Split            splitncnn_28             1 2 hardswish_8.tmp_0 hardswish_8.tmp_0_splitncnn_0 hardswish_8.tmp_0_splitncnn_1
Interp           Resize_1                 1 1 hardswish_8.tmp_0_splitncnn_1 nearest_interp_v2_1.tmp_0 0=1 1=2.000000e+00 2=2.000000e+00 3=0 4=0 6=0
Concat           Concat_25                2 1 nearest_interp_v2_1.tmp_0 hardswish_0.tmp_0 concat_25.tmp_0 0=0
Split            splitncnn_29             1 2 concat_25.tmp_0 concat_25.tmp_0_splitncnn_0 concat_25.tmp_0_splitncnn_1
Convolution      Conv_87                  1 1 concat_25.tmp_0_splitncnn_1 conv2d_202.tmp_0 0=48 1=1 11=1 2=1 12=1 3=1 13=1 4=0 14=0 15=0 16=0 5=1 6=9216
HardSwish        Div_45                   1 1 conv2d_202.tmp_0 hardswish_9.tmp_0 0=1.666667e-01 1=5.000000e-01
Convolution      Conv_88                  1 1 concat_25.tmp_0_splitncnn_0 conv2d_203.tmp_0 0=48 1=1 11=1 2=1 12=1 3=1 13=1 4=0 14=0 15=0 16=0 5=1 6=9216
HardSwish        Div_46                   1 1 conv2d_203.tmp_0 hardswish_10.tmp_0 0=1.666667e-01 1=5.000000e-01
Convolution      Conv_89                  1 1 hardswish_10.tmp_0 conv2d_204.tmp_0 0=48 1=1 11=1 2=1 12=1 3=1 13=1 4=0 14=0 15=0 16=0 5=1 6=2304
HardSwish        Div_47                   1 1 conv2d_204.tmp_0 hardswish_11.tmp_0 0=1.666667e-01 1=5.000000e-01
ConvolutionDepthWise Conv_90                  1 1 hardswish_11.tmp_0 depthwise_conv2d_20.tmp_0 0=48 1=5 11=5 2=1 12=1 3=1 13=1 4=2 14=2 15=2 16=2 5=1 6=1200 7=48
HardSwish        Div_48                   1 1 depthwise_conv2d_20.tmp_0 hardswish_12.tmp_0 0=1.666667e-01 1=5.000000e-01
Convolution      Conv_91                  1 1 hardswish_12.tmp_0 conv2d_205.tmp_0 0=48 1=1 11=1 2=1 12=1 3=1 13=1 4=0 14=0 15=0 16=0 5=1 6=2304
HardSwish        Div_49                   1 1 conv2d_205.tmp_0 hardswish_13.tmp_0 0=1.666667e-01 1=5.000000e-01
Concat           Concat_26                2 1 hardswish_13.tmp_0 hardswish_9.tmp_0 concat_26.tmp_0 0=0
Convolution      Conv_92                  1 1 concat_26.tmp_0 conv2d_206.tmp_0 0=96 1=1 11=1 2=1 12=1 3=1 13=1 4=0 14=0 15=0 16=0 5=1 6=9216
HardSwish        Div_50                   1 1 conv2d_206.tmp_0 hardswish_14.tmp_0 0=1.666667e-01 1=5.000000e-01
Split            splitncnn_30             1 2 hardswish_14.tmp_0 hardswish_14.tmp_0_splitncnn_0 hardswish_14.tmp_0_splitncnn_1
ConvolutionDepthWise Conv_93                  1 1 hardswish_14.tmp_0_splitncnn_1 depthwise_conv2d_21.tmp_0 0=96 1=5 11=5 2=1 12=1 3=2 13=2 4=2 14=2 15=2 16=2 5=1 6=2400 7=96
HardSwish        Div_51                   1 1 depthwise_conv2d_21.tmp_0 hardswish_15.tmp_0 0=1.666667e-01 1=5.000000e-01
Convolution      Conv_94                  1 1 hardswish_15.tmp_0 conv2d_207.tmp_0 0=96 1=1 11=1 2=1 12=1 3=1 13=1 4=0 14=0 15=0 16=0 5=1 6=9216
HardSwish        Div_52                   1 1 conv2d_207.tmp_0 hardswish_16.tmp_0 0=1.666667e-01 1=5.000000e-01
Concat           Concat_27                2 1 hardswish_16.tmp_0 hardswish_8.tmp_0_splitncnn_0 concat_27.tmp_0 0=0
Split            splitncnn_31             1 2 concat_27.tmp_0 concat_27.tmp_0_splitncnn_0 concat_27.tmp_0_splitncnn_1
Convolution      Conv_95                  1 1 concat_27.tmp_0_splitncnn_1 conv2d_208.tmp_0 0=48 1=1 11=1 2=1 12=1 3=1 13=1 4=0 14=0 15=0 16=0 5=1 6=9216
HardSwish        Div_53                   1 1 conv2d_208.tmp_0 hardswish_17.tmp_0 0=1.666667e-01 1=5.000000e-01
Convolution      Conv_96                  1 1 concat_27.tmp_0_splitncnn_0 conv2d_209.tmp_0 0=48 1=1 11=1 2=1 12=1 3=1 13=1 4=0 14=0 15=0 16=0 5=1 6=9216
HardSwish        Div_54                   1 1 conv2d_209.tmp_0 hardswish_18.tmp_0 0=1.666667e-01 1=5.000000e-01
Convolution      Conv_97                  1 1 hardswish_18.tmp_0 conv2d_210.tmp_0 0=48 1=1 11=1 2=1 12=1 3=1 13=1 4=0 14=0 15=0 16=0 5=1 6=2304
HardSwish        Div_55                   1 1 conv2d_210.tmp_0 hardswish_19.tmp_0 0=1.666667e-01 1=5.000000e-01
ConvolutionDepthWise Conv_98                  1 1 hardswish_19.tmp_0 depthwise_conv2d_22.tmp_0 0=48 1=5 11=5 2=1 12=1 3=1 13=1 4=2 14=2 15=2 16=2 5=1 6=1200 7=48
HardSwish        Div_56                   1 1 depthwise_conv2d_22.tmp_0 hardswish_20.tmp_0 0=1.666667e-01 1=5.000000e-01
Convolution      Conv_99                  1 1 hardswish_20.tmp_0 conv2d_211.tmp_0 0=48 1=1 11=1 2=1 12=1 3=1 13=1 4=0 14=0 15=0 16=0 5=1 6=2304
HardSwish        Div_57                   1 1 conv2d_211.tmp_0 hardswish_21.tmp_0 0=1.666667e-01 1=5.000000e-01
Concat           Concat_28                2 1 hardswish_21.tmp_0 hardswish_17.tmp_0 concat_28.tmp_0 0=0
Convolution      Conv_100                 1 1 concat_28.tmp_0 conv2d_212.tmp_0 0=96 1=1 11=1 2=1 12=1 3=1 13=1 4=0 14=0 15=0 16=0 5=1 6=9216
HardSwish        Div_58                   1 1 conv2d_212.tmp_0 hardswish_22.tmp_0 0=1.666667e-01 1=5.000000e-01
Split            splitncnn_32             1 2 hardswish_22.tmp_0 hardswish_22.tmp_0_splitncnn_0 hardswish_22.tmp_0_splitncnn_1
ConvolutionDepthWise Conv_101                 1 1 hardswish_22.tmp_0_splitncnn_1 depthwise_conv2d_23.tmp_0 0=96 1=5 11=5 2=1 12=1 3=2 13=2 4=2 14=2 15=2 16=2 5=1 6=2400 7=96
HardSwish        Div_59                   1 1 depthwise_conv2d_23.tmp_0 hardswish_23.tmp_0 0=1.666667e-01 1=5.000000e-01
Convolution      Conv_102                 1 1 hardswish_23.tmp_0 conv2d_213.tmp_0 0=96 1=1 11=1 2=1 12=1 3=1 13=1 4=0 14=0 15=0 16=0 5=1 6=9216
HardSwish        Div_60                   1 1 conv2d_213.tmp_0 hardswish_24.tmp_0 0=1.666667e-01 1=5.000000e-01
Concat           Concat_29                2 1 hardswish_24.tmp_0 hardswish_2.tmp_0_splitncnn_1 concat_29.tmp_0 0=0
Split            splitncnn_33             1 2 concat_29.tmp_0 concat_29.tmp_0_splitncnn_0 concat_29.tmp_0_splitncnn_1
Convolution      Conv_103                 1 1 concat_29.tmp_0_splitncnn_1 conv2d_214.tmp_0 0=48 1=1 11=1 2=1 12=1 3=1 13=1 4=0 14=0 15=0 16=0 5=1 6=9216
HardSwish        Div_61                   1 1 conv2d_214.tmp_0 hardswish_25.tmp_0 0=1.666667e-01 1=5.000000e-01
Convolution      Conv_104                 1 1 concat_29.tmp_0_splitncnn_0 conv2d_215.tmp_0 0=48 1=1 11=1 2=1 12=1 3=1 13=1 4=0 14=0 15=0 16=0 5=1 6=9216
HardSwish        Div_62                   1 1 conv2d_215.tmp_0 hardswish_26.tmp_0 0=1.666667e-01 1=5.000000e-01
Convolution      Conv_105                 1 1 hardswish_26.tmp_0 conv2d_216.tmp_0 0=48 1=1 11=1 2=1 12=1 3=1 13=1 4=0 14=0 15=0 16=0 5=1 6=2304
HardSwish        Div_63                   1 1 conv2d_216.tmp_0 hardswish_27.tmp_0 0=1.666667e-01 1=5.000000e-01
ConvolutionDepthWise Conv_106                 1 1 hardswish_27.tmp_0 depthwise_conv2d_24.tmp_0 0=48 1=5 11=5 2=1 12=1 3=1 13=1 4=2 14=2 15=2 16=2 5=1 6=1200 7=48
HardSwish        Div_64                   1 1 depthwise_conv2d_24.tmp_0 hardswish_28.tmp_0 0=1.666667e-01 1=5.000000e-01
Convolution      Conv_107                 1 1 hardswish_28.tmp_0 conv2d_217.tmp_0 0=48 1=1 11=1 2=1 12=1 3=1 13=1 4=0 14=0 15=0 16=0 5=1 6=2304
HardSwish        Div_65                   1 1 conv2d_217.tmp_0 hardswish_29.tmp_0 0=1.666667e-01 1=5.000000e-01
Concat           Concat_30                2 1 hardswish_29.tmp_0 hardswish_25.tmp_0 concat_30.tmp_0 0=0
Convolution      Conv_108                 1 1 concat_30.tmp_0 conv2d_218.tmp_0 0=96 1=1 11=1 2=1 12=1 3=1 13=1 4=0 14=0 15=0 16=0 5=1 6=9216
HardSwish        Div_66                   1 1 conv2d_218.tmp_0 hardswish_30.tmp_0 0=1.666667e-01 1=5.000000e-01
Split            splitncnn_34             1 2 hardswish_30.tmp_0 hardswish_30.tmp_0_splitncnn_0 hardswish_30.tmp_0_splitncnn_1
ConvolutionDepthWise Conv_109                 1 1 hardswish_2.tmp_0_splitncnn_0 depthwise_conv2d_25.tmp_0 0=96 1=5 11=5 2=1 12=1 3=2 13=2 4=2 14=2 15=2 16=2 5=1 6=2400 7=96
HardSwish        Div_67                   1 1 depthwise_conv2d_25.tmp_0 hardswish_31.tmp_0 0=1.666667e-01 1=5.000000e-01
Convolution      Conv_110                 1 1 hardswish_31.tmp_0 conv2d_219.tmp_0 0=96 1=1 11=1 2=1 12=1 3=1 13=1 4=0 14=0 15=0 16=0 5=1 6=9216
HardSwish        Div_68                   1 1 conv2d_219.tmp_0 hardswish_32.tmp_0 0=1.666667e-01 1=5.000000e-01
ConvolutionDepthWise Conv_111                 1 1 hardswish_30.tmp_0_splitncnn_1 depthwise_conv2d_26.tmp_0 0=96 1=5 11=5 2=1 12=1 3=2 13=2 4=2 14=2 15=2 16=2 5=1 6=2400 7=96
HardSwish        Div_69                   1 1 depthwise_conv2d_26.tmp_0 hardswish_33.tmp_0 0=1.666667e-01 1=5.000000e-01
Convolution      Conv_112                 1 1 hardswish_33.tmp_0 conv2d_220.tmp_0 0=96 1=1 11=1 2=1 12=1 3=1 13=1 4=0 14=0 15=0 16=0 5=1 6=9216
HardSwish        Div_70                   1 1 conv2d_220.tmp_0 hardswish_34.tmp_0 0=1.666667e-01 1=5.000000e-01
BinaryOp         Add_97                   2 1 hardswish_32.tmp_0 hardswish_34.tmp_0 tmp_0 0=0
ConvolutionDepthWise Conv_113                 1 1 hardswish_14.tmp_0_splitncnn_0 depthwise_conv2d_27.tmp_0 0=96 1=5 11=5 2=1 12=1 3=1 13=1 4=2 14=2 15=2 16=2 5=1 6=2400 7=96
HardSwish        Div_71                   1 1 depthwise_conv2d_27.tmp_0 hardswish_35.tmp_0 0=1.666667e-01 1=5.000000e-01
Convolution      Conv_114                 1 1 hardswish_35.tmp_0 conv2d_221.tmp_0 0=96 1=1 11=1 2=1 12=1 3=1 13=1 4=0 14=0 15=0 16=0 5=1 6=9216
HardSwish        Div_72                   1 1 conv2d_221.tmp_0 hardswish_36.tmp_0 0=1.666667e-01 1=5.000000e-01
ConvolutionDepthWise Conv_115                 1 1 hardswish_36.tmp_0 depthwise_conv2d_28.tmp_0 0=96 1=5 11=5 2=1 12=1 3=1 13=1 4=2 14=2 15=2 16=2 5=1 6=2400 7=96
HardSwish        Div_73                   1 1 depthwise_conv2d_28.tmp_0 hardswish_37.tmp_0 0=1.666667e-01 1=5.000000e-01
Convolution      Conv_116                 1 1 hardswish_37.tmp_0 conv2d_222.tmp_0 0=96 1=1 11=1 2=1 12=1 3=1 13=1 4=0 14=0 15=0 16=0 5=1 6=9216
HardSwish        Div_74                   1 1 conv2d_222.tmp_0 hardswish_38.tmp_0 0=1.666667e-01 1=5.000000e-01
Convolution      Conv_117                 1 1 hardswish_38.tmp_0 conv2d_223.tmp_0 0=112 1=1 11=1 2=1 12=1 3=1 13=1 4=0 14=0 15=0 16=0 5=1 6=10752
Slice            Split_10                 1 2 conv2d_223.tmp_0 split_10.tmp_0 split_10.tmp_1 -23300=2,80,-233 1=0
Sigmoid          Sigmoid_0                1 1 split_10.tmp_0 sigmoid_0.tmp_0
Reshape          Reshape_47               1 1 sigmoid_0.tmp_0 reshape2_20.tmp_0 0=-1 1=80
Permute          Transpose_10             1 1 reshape2_20.tmp_0 save_infer_model/scale_0.tmp_1 0=1
Reshape          Reshape_48               1 1 split_10.tmp_1 reshape2_21.tmp_0 0=-1 1=32
Permute          Transpose_11             1 1 reshape2_21.tmp_0 save_infer_model/scale_4.tmp_1 0=1
ConvolutionDepthWise Conv_118                 1 1 hardswish_22.tmp_0_splitncnn_0 depthwise_conv2d_29.tmp_0 0=96 1=5 11=5 2=1 12=1 3=1 13=1 4=2 14=2 15=2 16=2 5=1 6=2400 7=96
HardSwish        Div_75                   1 1 depthwise_conv2d_29.tmp_0 hardswish_39.tmp_0 0=1.666667e-01 1=5.000000e-01
Convolution      Conv_119                 1 1 hardswish_39.tmp_0 conv2d_224.tmp_0 0=96 1=1 11=1 2=1 12=1 3=1 13=1 4=0 14=0 15=0 16=0 5=1 6=9216
HardSwish        Div_76                   1 1 conv2d_224.tmp_0 hardswish_40.tmp_0 0=1.666667e-01 1=5.000000e-01
ConvolutionDepthWise Conv_120                 1 1 hardswish_40.tmp_0 depthwise_conv2d_30.tmp_0 0=96 1=5 11=5 2=1 12=1 3=1 13=1 4=2 14=2 15=2 16=2 5=1 6=2400 7=96
HardSwish        Div_77                   1 1 depthwise_conv2d_30.tmp_0 hardswish_41.tmp_0 0=1.666667e-01 1=5.000000e-01
Convolution      Conv_121                 1 1 hardswish_41.tmp_0 conv2d_225.tmp_0 0=96 1=1 11=1 2=1 12=1 3=1 13=1 4=0 14=0 15=0 16=0 5=1 6=9216
HardSwish        Div_78                   1 1 conv2d_225.tmp_0 hardswish_42.tmp_0 0=1.666667e-01 1=5.000000e-01
Convolution      Conv_122                 1 1 hardswish_42.tmp_0 conv2d_226.tmp_0 0=112 1=1 11=1 2=1 12=1 3=1 13=1 4=0 14=0 15=0 16=0 5=1 6=10752
Slice            Split_11                 1 2 conv2d_226.tmp_0 split_11.tmp_0 split_11.tmp_1 -23300=2,80,-233 1=0
Sigmoid          Sigmoid_1                1 1 split_11.tmp_0 sigmoid_1.tmp_0
Reshape          Reshape_50               1 1 sigmoid_1.tmp_0 reshape2_22.tmp_0 0=-1 1=80
Permute          Transpose_12             1 1 reshape2_22.tmp_0 save_infer_model/scale_1.tmp_1 0=1
Reshape          Reshape_51               1 1 split_11.tmp_1 reshape2_23.tmp_0 0=-1 1=32
Permute          Transpose_13             1 1 reshape2_23.tmp_0 save_infer_model/scale_5.tmp_1 0=1
ConvolutionDepthWise Conv_123                 1 1 hardswish_30.tmp_0_splitncnn_0 depthwise_conv2d_31.tmp_0 0=96 1=5 11=5 2=1 12=1 3=1 13=1 4=2 14=2 15=2 16=2 5=1 6=2400 7=96
HardSwish        Div_79                   1 1 depthwise_conv2d_31.tmp_0 hardswish_43.tmp_0 0=1.666667e-01 1=5.000000e-01
Convolution      Conv_124                 1 1 hardswish_43.tmp_0 conv2d_227.tmp_0 0=96 1=1 11=1 2=1 12=1 3=1 13=1 4=0 14=0 15=0 16=0 5=1 6=9216
HardSwish        Div_80                   1 1 conv2d_227.tmp_0 hardswish_44.tmp_0 0=1.666667e-01 1=5.000000e-01
ConvolutionDepthWise Conv_125                 1 1 hardswish_44.tmp_0 depthwise_conv2d_32.tmp_0 0=96 1=5 11=5 2=1 12=1 3=1 13=1 4=2 14=2 15=2 16=2 5=1 6=2400 7=96
HardSwish        Div_81                   1 1 depthwise_conv2d_32.tmp_0 hardswish_45.tmp_0 0=1.666667e-01 1=5.000000e-01
Convolution      Conv_126                 1 1 hardswish_45.tmp_0 conv2d_228.tmp_0 0=96 1=1 11=1 2=1 12=1 3=1 13=1 4=0 14=0 15=0 16=0 5=1 6=9216
HardSwish        Div_82                   1 1 conv2d_228.tmp_0 hardswish_46.tmp_0 0=1.666667e-01 1=5.000000e-01
Convolution      Conv_127                 1 1 hardswish_46.tmp_0 conv2d_229.tmp_0 0=112 1=1 11=1 2=1 12=1 3=1 13=1 4=0 14=0 15=0 16=0 5=1 6=10752
Slice            Split_12                 1 2 conv2d_229.tmp_0 split_12.tmp_0 split_12.tmp_1 -23300=2,80,-233 1=0
Sigmoid          Sigmoid_2                1 1 split_12.tmp_0 sigmoid_2.tmp_0
Reshape          Reshape_53               1 1 sigmoid_2.tmp_0 reshape2_24.tmp_0 0=-1 1=80
Permute          Transpose_14             1 1 reshape2_24.tmp_0 save_infer_model/scale_2.tmp_1 0=1
Reshape          Reshape_54               1 1 split_12.tmp_1 reshape2_25.tmp_0 0=-1 1=32
Permute          Transpose_15             1 1 reshape2_25.tmp_0 save_infer_model/scale_6.tmp_1 0=1
ConvolutionDepthWise Conv_128                 1 1 tmp_0 depthwise_conv2d_33.tmp_0 0=96 1=5 11=5 2=1 12=1 3=1 13=1 4=2 14=2 15=2 16=2 5=1 6=2400 7=96
HardSwish        Div_83                   1 1 depthwise_conv2d_33.tmp_0 hardswish_47.tmp_0 0=1.666667e-01 1=5.000000e-01
Convolution      Conv_129                 1 1 hardswish_47.tmp_0 conv2d_230.tmp_0 0=96 1=1 11=1 2=1 12=1 3=1 13=1 4=0 14=0 15=0 16=0 5=1 6=9216
HardSwish        Div_84                   1 1 conv2d_230.tmp_0 hardswish_48.tmp_0 0=1.666667e-01 1=5.000000e-01
ConvolutionDepthWise Conv_130                 1 1 hardswish_48.tmp_0 depthwise_conv2d_34.tmp_0 0=96 1=5 11=5 2=1 12=1 3=1 13=1 4=2 14=2 15=2 16=2 5=1 6=2400 7=96
HardSwish        Div_85                   1 1 depthwise_conv2d_34.tmp_0 hardswish_49.tmp_0 0=1.666667e-01 1=5.000000e-01
Convolution      Conv_131                 1 1 hardswish_49.tmp_0 conv2d_231.tmp_0 0=96 1=1 11=1 2=1 12=1 3=1 13=1 4=0 14=0 15=0 16=0 5=1 6=9216
HardSwish        Div_86                   1 1 conv2d_231.tmp_0 hardswish_50.tmp_0 0=1.666667e-01 1=5.000000e-01
Convolution      Conv_132                 1 1 hardswish_50.tmp_0 conv2d_232.tmp_0 0=112 1=1 11=1 2=1 12=1 3=1 13=1 4=0 14=0 15=0 16=0 5=1 6=10752
Slice            Split_13                 1 2 conv2d_232.tmp_0 split_13.tmp_0 split_13.tmp_1 -23300=2,80,-233 1=0
Sigmoid          Sigmoid_3                1 1 split_13.tmp_0 sigmoid_3.tmp_0
Reshape          Reshape_56               1 1 sigmoid_3.tmp_0 reshape2_26.tmp_0 0=-1 1=80
Permute          Transpose_16             1 1 reshape2_26.tmp_0 save_infer_model/scale_3.tmp_1 0=1
Reshape          Reshape_57               1 1 split_13.tmp_1 reshape2_27.tmp_0 0=-1 1=32
Permute          Transpose_17             1 1 reshape2_27.tmp_0 save_infer_model/scale_7.tmp_1 0=1
