7767517
74 80
Input            data                     0 1 data -23330=4,3,416,416,3 0=416 1=416 2=3
MemoryData       121                      0 1 121
MemoryData       134                      0 1 134
MemoryData       187                      0 1 187
MemoryData       200                      0 1 200
MemoryData       67                       0 1 67 0=1
Convolution      Conv_0                   1 1 data 28 0=16 1=3 11=3 2=1 12=1 3=1 13=1 4=1 14=1 15=1 16=1 5=1 6=432
ReLU             LeakyRelu_1              1 1 28 29 0=1.000000e-01
Pooling          MaxPool_2                1 1 29 30 0=0 1=2 11=2 2=2 12=2 3=0 13=0 14=0 15=0 5=1
Convolution      Conv_3                   1 1 30 31 0=32 1=3 11=3 2=1 12=1 3=1 13=1 4=1 14=1 15=1 16=1 5=1 6=4608
ReLU             LeakyRelu_4              1 1 31 32 0=1.000000e-01
Pooling          MaxPool_5                1 1 32 33 0=0 1=2 11=2 2=2 12=2 3=0 13=0 14=0 15=0 5=1
Convolution      Conv_6                   1 1 33 34 0=64 1=3 11=3 2=1 12=1 3=1 13=1 4=1 14=1 15=1 16=1 5=1 6=18432
ReLU             LeakyRelu_7              1 1 34 35 0=1.000000e-01
Pooling          MaxPool_8                1 1 35 36 0=0 1=2 11=2 2=2 12=2 3=0 13=0 14=0 15=0 5=1
Convolution      Conv_9                   1 1 36 37 0=128 1=3 11=3 2=1 12=1 3=1 13=1 4=1 14=1 15=1 16=1 5=1 6=73728
ReLU             LeakyRelu_10             1 1 37 38 0=1.000000e-01
Pooling          MaxPool_11               1 1 38 39 0=0 1=2 11=2 2=2 12=2 3=0 13=0 14=0 15=0 5=1
Convolution      Conv_12                  1 1 39 40 0=256 1=3 11=3 2=1 12=1 3=1 13=1 4=1 14=1 15=1 16=1 5=1 6=294912
ReLU             LeakyRelu_13             1 1 40 41 0=1.000000e-01
Split            splitncnn_0              1 2 41 41_splitncnn_0 41_splitncnn_1
Pooling          MaxPool_14               1 1 41_splitncnn_1 42 0=0 1=2 11=2 2=2 12=2 3=0 13=0 14=0 15=0 5=1
Convolution      Conv_15                  1 1 42 43 0=512 1=3 11=3 2=1 12=1 3=1 13=1 4=1 14=1 15=1 16=1 5=1 6=1179648
ReLU             LeakyRelu_16             1 1 43 44 0=1.000000e-01
Padding          Pad_31                   2 1 44 67 68 0=0 1=1 2=0 3=1 4=0 5=0.000000e+00 7=0 8=0
Pooling          MaxPool_32               1 1 68 69 0=0 1=2 11=2 2=1 12=1 3=0 13=0 14=0 15=0 5=1
Convolution      Conv_33                  1 1 69 70 0=1024 1=3 11=3 2=1 12=1 3=1 13=1 4=1 14=1 15=1 16=1 5=1 6=4718592
ReLU             LeakyRelu_34             1 1 70 71 0=1.000000e-01
Convolution      Conv_35                  1 1 71 72 0=256 1=1 11=1 2=1 12=1 3=1 13=1 4=0 14=0 15=0 16=0 5=1 6=262144
ReLU             LeakyRelu_36             1 1 72 73 0=1.000000e-01
Split            splitncnn_1              1 2 73 73_splitncnn_0 73_splitncnn_1
Convolution      Conv_37                  1 1 73_splitncnn_1 74 0=512 1=3 11=3 2=1 12=1 3=1 13=1 4=1 14=1 15=1 16=1 5=1 6=1179648
ReLU             LeakyRelu_38             1 1 74 75 0=1.000000e-01
Convolution      Conv_39                  1 1 73_splitncnn_0 76 0=128 1=1 11=1 2=1 12=1 3=1 13=1 4=0 14=0 15=0 16=0 5=1 6=32768
ReLU             LeakyRelu_40             1 1 76 77 0=1.000000e-01
Interp           Resize_41                1 1 77 82 0=1 1=2.000000e+00 2=2.000000e+00 3=0 4=0 6=0
Concat           Concat_42                2 1 82 41_splitncnn_0 83 0=0
Convolution      Conv_43                  1 1 83 84 0=256 1=3 11=3 2=1 12=1 3=1 13=1 4=1 14=1 15=1 16=1 5=1 6=884736
ReLU             LeakyRelu_44             1 1 84 85 0=1.000000e-01
Convolution      Conv_45                  1 1 85 86 0=255 1=1 11=1 2=1 12=1 3=1 13=1 4=0 14=0 15=0 16=0 5=1 6=65280
Reshape          Reshape_62               1 1 86 109 0=1600 1=85 2=3
Permute          Transpose_63             1 1 109 110 0=1
Sigmoid          Sigmoid_64               1 1 110 111
Split            splitncnn_2              1 3 111 111_splitncnn_0 111_splitncnn_1 111_splitncnn_2
Crop             Slice_69                 1 1 111_splitncnn_2 116 -23309=1,0 -23310=1,2 -23311=1,3
BinaryOp         Mul_71                   1 1 116 118 0=2 1=1 2=2.000000e+00
BinaryOp         Sub_73                   1 1 118 120 0=1 1=1 2=5.000000e-01
BinaryOp         Add_75                   2 1 120 121 122 0=0
BinaryOp         Mul_77                   1 1 122 124 0=2 1=1 2=1.600000e+01
Crop             Slice_82                 1 1 111_splitncnn_1 129 -23309=1,2 -23310=1,4 -23311=1,3
BinaryOp         Mul_84                   1 1 129 131 0=2 1=1 2=2.000000e+00
BinaryOp         Pow_86                   1 1 131 133 0=6 1=1 2=2.000000e+00
BinaryOp         Mul_88                   2 1 133 134 135 0=2
Crop             Slice_93                 1 1 111_splitncnn_0 140 -23309=1,4 -23310=1,2147483647 -23311=1,3
Concat           Concat_94                3 1 124 135 140 141 0=-1
Reshape          Reshape_98               1 1 141 151 0=85 1=-1
Convolution      Conv_99                  1 1 75 152 0=255 1=1 11=1 2=1 12=1 3=1 13=1 4=0 14=0 15=0 16=0 5=1 6=130560
Reshape          Reshape_116              1 1 152 175 0=400 1=85 2=3
Permute          Transpose_117            1 1 175 176 0=1
Sigmoid          Sigmoid_118              1 1 176 177
Split            splitncnn_3              1 3 177 177_splitncnn_0 177_splitncnn_1 177_splitncnn_2
Crop             Slice_123                1 1 177_splitncnn_2 182 -23309=1,0 -23310=1,2 -23311=1,3
BinaryOp         Mul_125                  1 1 182 184 0=2 1=1 2=2.000000e+00
BinaryOp         Sub_127                  1 1 184 186 0=1 1=1 2=5.000000e-01
BinaryOp         Add_129                  2 1 186 187 188 0=0
BinaryOp         Mul_131                  1 1 188 190 0=2 1=1 2=3.200000e+01
Crop             Slice_136                1 1 177_splitncnn_1 195 -23309=1,2 -23310=1,4 -23311=1,3
BinaryOp         Mul_138                  1 1 195 197 0=2 1=1 2=2.000000e+00
BinaryOp         Pow_140                  1 1 197 199 0=6 1=1 2=2.000000e+00
BinaryOp         Mul_142                  2 1 199 200 201 0=2
Crop             Slice_147                1 1 177_splitncnn_0 206 -23309=1,4 -23310=1,2147483647 -23311=1,3
Concat           Concat_148               3 1 190 201 206 207 0=-1
Reshape          Reshape_152              1 1 207 217 0=85 1=-1
Concat           Concat_153               2 1 151 217 output 0=0
